…
I1129 21:38:42.211618  2470 solver.cpp:71] Creating training net from net file: protos/sicnn_train10k_train_test_mnist-sc_split5.prototxt
I1129 21:38:42.212152  2470 net.cpp:281] The NetState phase (0) differed from the phase (1) specified by a rule in layer mnist
I1129 21:38:42.212185  2470 net.cpp:281] The NetState phase (0) differed from the phase (1) specified by a rule in layer accuracy
I1129 21:38:42.212410  2470 net.cpp:41] Initializing net from parameters: 
name: "MNIST-sicnn-Table-1-split-5"
layers {
  top: "data"
  top: "label"
  name: "mnist"
  type: HDF5_DATA
  hdf5_data_param {
    source: "../../data/mnist/table1/10k_split5_test.txt"
    batch_size: 128
  }
  include {
    phase: TRAIN
  }
}
layers {
  bottom: "data"
  top: "conv1"
  name: "conv1"
  type: TICONV
  blobs_lr: 1
  blobs_lr: 2
  weight_decay: 1
  weight_decay: 0
  convolution_param {
    num_output: 36
    kernel_size: 7
    stride: 1
    weight_filler {
      type: "gaussian"
      std: 0.01
    }
    bias_filler {
      type: "constant"
    }
  }
  transformations {
  }
  transformations {
    scale: 0.63
  }
  transformations {
    scale: 0.7937
  }
  transformations {
    scale: 1.2599
  }
  transformations {
    scale: 1.5874
  }
  transformations {
    scale: 2
  }
}
layers {
  bottom: "conv1"
  top: "conv1"
  name: "relu1"
  type: RELU
}
layers {
  bottom: "conv1"
  top: "pool1"
  name: "pool1"
  type: POOLING
  pooling_param {
    pool: MAX
    kernel_size: 2
    stride: 2
  }
}
layers {
  bottom: "pool1"
  top: "conv2"
  name: "conv2"
  type: TICONV
  blobs_lr: 1
  blobs_lr: 2
  weight_decay: 1
  weight_decay: 0
  convolution_param {
    num_output: 64
    kernel_size: 5
    stride: 1
    weight_filler {
      type: "gaussian"
      std: 0.01
    }
    bias_filler {
      type: "constant"
    }
  }
  transformations {
  }
  transformations {
    scale: 0.63
  }
  transformations {
    scale: 0.7937
  }
  transformations {
    scale: 1.2599
  }
  transformations {
    scale: 1.5874
  }
  transformations {
    scale: 2
  }
}
layers {
  bottom: "conv2"
  top: "conv2"
  name: "relu2"
  type: RELU
}
layers {
  bottom: "conv2"
  top: "pool2"
  name: "pool2"
  type: POOLING
  pooling_param {
    pool: MAX
    kernel_size: 3
    stride: 3
  }
}
layers {
  bottom: "pool2"
  top: "ip1"
  name: "ip1"
  type: INNER_PRODUCT
  blobs_lr: 1
  blobs_lr: 2
  weight_decay: 1
  weight_decay: 0
  inner_product_param {
    num_output: 150
    weight_filler {
      type: "gaussian"
      std: 0.1
    }
    bias_filler {
      type: "constant"
    }
  }
}
layers {
  bottom: "ip1"
  top: "ip1"
  name: "relu3"
  type: RELU
}
layers {
  bottom: "ip1"
  top: "ip2"
  name: "ip2"
  type: INNER_PRODUCT
  blobs_lr: 1
  blobs_lr: 2
  weight_decay: 1
  weight_decay: 0
  inner_product_param {
    num_output: 10
    weight_filler {
      type: "gaussian"
      std: 0.1
    }
    bias_filler {
      type: "constant"
    }
  }
}
layers {
  bottom: "ip2"
  bottom: "label"
  top: "loss"
  name: "loss"
  type: SOFTMAX_LOSS
}
state {
  phase: TRAIN
}
I1129 21:38:42.212518  2470 net.cpp:69] Creating Layer mnist
I1129 21:38:42.212536  2470 net.cpp:362] mnist -> data
I1129 21:38:42.212558  2470 net.cpp:362] mnist -> label
I1129 21:38:42.212572  2470 net.cpp:98] Setting up mnist
I1129 21:38:42.212582  2470 hdf5_data_layer.cpp:61] Loading filename from ../../data/mnist/table1/10k_split5_test.txt
I1129 21:38:42.275768  2470 hdf5_data_layer.cpp:73] Number of files: 1
I1129 21:38:42.275795  2470 hdf5_data_layer.cpp:76] Loading HDF5 file/root/si-convnet/data/mnist/table1/mnist-sc-uniform-10ksplit-set-5.h5
I1129 21:38:42.307288  2470 hdf5_data_layer.cpp:86] output data size: 128,1,28,28
I1129 21:38:42.307420  2470 net.cpp:105] Top shape: 128 1 28 28 (100352)
I1129 21:38:42.307436  2470 net.cpp:105] Top shape: 128 1 1 1 (128)
I1129 21:38:42.307463  2470 net.cpp:69] Creating Layer conv1
I1129 21:38:42.307474  2470 net.cpp:400] conv1 <- data
I1129 21:38:42.307492  2470 net.cpp:362] conv1 -> conv1
I1129 21:38:42.307512  2470 net.cpp:98] Setting up conv1
I1129 21:38:42.307533  2470 ticonv_layer.cpp:27] TIConvolution layer using 6 transformations conv1 using interpolation: 1
I1129 21:38:42.307543  2470 ticonv_layer.cpp:33]  T0 :  sc: 1, rot: 0
I1129 21:38:42.307615  2470 ticonv_layer.cpp:33]  T1 :  sc: 0.63, rot: 0
I1129 21:38:42.307631  2470 ticonv_layer.cpp:33]  T2 :  sc: 0.7937, rot: 0
I1129 21:38:42.307643  2470 ticonv_layer.cpp:33]  T3 :  sc: 1.2599, rot: 0
I1129 21:38:42.307655  2470 ticonv_layer.cpp:33]  T4 :  sc: 1.5874, rot: 0
I1129 21:38:42.307667  2470 ticonv_layer.cpp:33]  T5 :  sc: 2, rot: 0
I1129 21:38:42.307679  2470 ticonv_layer.cpp:37]   Creating Upsampling Layer in conv1
I1129 21:38:42.321368  2470 ticonv_layer.cpp:51]   Top shape: 1 28 28
I1129 21:38:42.321394  2470 ticonv_layer.cpp:51]   Top shape: 1 17 17
I1129 21:38:42.321404  2470 ticonv_layer.cpp:51]   Top shape: 1 22 22
I1129 21:38:42.321413  2470 ticonv_layer.cpp:51]   Top shape: 1 35 35
I1129 21:38:42.321421  2470 ticonv_layer.cpp:51]   Top shape: 1 44 44
I1129 21:38:42.321429  2470 ticonv_layer.cpp:51]   Top shape: 1 56 56
I1129 21:38:42.321437  2470 ticonv_layer.cpp:58]   Creating TiedConv Layer in conv1
I1129 21:38:42.321604  2470 ticonv_layer.cpp:70]   Top shape: 36 22 22
I1129 21:38:42.321622  2470 ticonv_layer.cpp:70]   Top shape: 36 11 11
I1129 21:38:42.321632  2470 ticonv_layer.cpp:70]   Top shape: 36 16 16
I1129 21:38:42.321640  2470 ticonv_layer.cpp:70]   Top shape: 36 29 29
I1129 21:38:42.321648  2470 ticonv_layer.cpp:70]   Top shape: 36 38 38
I1129 21:38:42.321657  2470 ticonv_layer.cpp:70]   Top shape: 36 50 50
I1129 21:38:42.321666  2470 ticonv_layer.cpp:82]   Creating DownPooling Layer in conv1
I1129 21:38:42.322139  2470 net.cpp:105] Top shape: 128 36 22 22 (2230272)
I1129 21:38:42.322180  2470 net.cpp:69] Creating Layer relu1
I1129 21:38:42.322191  2470 net.cpp:400] relu1 <- conv1
I1129 21:38:42.322204  2470 net.cpp:351] relu1 -> conv1 (in-place)
I1129 21:38:42.322219  2470 net.cpp:98] Setting up relu1
I1129 21:38:42.322228  2470 net.cpp:105] Top shape: 128 36 22 22 (2230272)
I1129 21:38:42.322242  2470 net.cpp:69] Creating Layer pool1
I1129 21:38:42.322250  2470 net.cpp:400] pool1 <- conv1
I1129 21:38:42.322263  2470 net.cpp:362] pool1 -> pool1
I1129 21:38:42.322276  2470 net.cpp:98] Setting up pool1
I1129 21:38:42.322289  2470 net.cpp:105] Top shape: 128 36 11 11 (557568)
I1129 21:38:42.322305  2470 net.cpp:69] Creating Layer conv2
I1129 21:38:42.322314  2470 net.cpp:400] conv2 <- pool1
I1129 21:38:42.322329  2470 net.cpp:362] conv2 -> conv2
I1129 21:38:42.322343  2470 net.cpp:98] Setting up conv2
I1129 21:38:42.322353  2470 ticonv_layer.cpp:27] TIConvolution layer using 6 transformations conv2 using interpolation: 1
I1129 21:38:42.322361  2470 ticonv_layer.cpp:33]  T0 :  sc: 1, rot: 0
I1129 21:38:42.322388  2470 ticonv_layer.cpp:33]  T1 :  sc: 0.63, rot: 0
I1129 21:38:42.322403  2470 ticonv_layer.cpp:33]  T2 :  sc: 0.7937, rot: 0
I1129 21:38:42.322415  2470 ticonv_layer.cpp:33]  T3 :  sc: 1.2599, rot: 0
I1129 21:38:42.322427  2470 ticonv_layer.cpp:33]  T4 :  sc: 1.5874, rot: 0
I1129 21:38:42.322439  2470 ticonv_layer.cpp:33]  T5 :  sc: 2, rot: 0
I1129 21:38:42.322451  2470 ticonv_layer.cpp:37]   Creating Upsampling Layer in conv2
I1129 21:38:42.322778  2470 ticonv_layer.cpp:51]   Top shape: 36 11 11
I1129 21:38:42.322798  2470 ticonv_layer.cpp:51]   Top shape: 36 6 6
I1129 21:38:42.322808  2470 ticonv_layer.cpp:51]   Top shape: 36 8 8
I1129 21:38:42.322815  2470 ticonv_layer.cpp:51]   Top shape: 36 13 13
I1129 21:38:42.322824  2470 ticonv_layer.cpp:51]   Top shape: 36 17 17
I1129 21:38:42.322831  2470 ticonv_layer.cpp:51]   Top shape: 36 22 22
I1129 21:38:42.322839  2470 ticonv_layer.cpp:58]   Creating TiedConv Layer in conv2
I1129 21:38:42.326313  2470 ticonv_layer.cpp:70]   Top shape: 64 7 7
I1129 21:38:42.326335  2470 ticonv_layer.cpp:70]   Top shape: 64 2 2
I1129 21:38:42.326344  2470 ticonv_layer.cpp:70]   Top shape: 64 4 4
I1129 21:38:42.326354  2470 ticonv_layer.cpp:70]   Top shape: 64 9 9
I1129 21:38:42.326361  2470 ticonv_layer.cpp:70]   Top shape: 64 13 13
I1129 21:38:42.326370  2470 ticonv_layer.cpp:70]   Top shape: 64 18 18
I1129 21:38:42.326380  2470 ticonv_layer.cpp:82]   Creating DownPooling Layer in conv2
I1129 21:38:42.326653  2470 net.cpp:105] Top shape: 128 64 7 7 (401408)
I1129 21:38:42.326683  2470 net.cpp:69] Creating Layer relu2
I1129 21:38:42.326694  2470 net.cpp:400] relu2 <- conv2
I1129 21:38:42.326707  2470 net.cpp:351] relu2 -> conv2 (in-place)
I1129 21:38:42.326720  2470 net.cpp:98] Setting up relu2
I1129 21:38:42.326730  2470 net.cpp:105] Top shape: 128 64 7 7 (401408)
I1129 21:38:42.326742  2470 net.cpp:69] Creating Layer pool2
I1129 21:38:42.326751  2470 net.cpp:400] pool2 <- conv2
I1129 21:38:42.326762  2470 net.cpp:362] pool2 -> pool2
I1129 21:38:42.326776  2470 net.cpp:98] Setting up pool2
I1129 21:38:42.326786  2470 net.cpp:105] Top shape: 128 64 3 3 (73728)
I1129 21:38:42.326800  2470 net.cpp:69] Creating Layer ip1
I1129 21:38:42.326809  2470 net.cpp:400] ip1 <- pool2
I1129 21:38:42.326822  2470 net.cpp:362] ip1 -> ip1
I1129 21:38:42.326835  2470 net.cpp:98] Setting up ip1
I1129 21:38:42.331931  2470 net.cpp:105] Top shape: 128 150 1 1 (19200)
I1129 21:38:42.331965  2470 net.cpp:69] Creating Layer relu3
I1129 21:38:42.331976  2470 net.cpp:400] relu3 <- ip1
I1129 21:38:42.331988  2470 net.cpp:351] relu3 -> ip1 (in-place)
I1129 21:38:42.332000  2470 net.cpp:98] Setting up relu3
I1129 21:38:42.332010  2470 net.cpp:105] Top shape: 128 150 1 1 (19200)
I1129 21:38:42.332023  2470 net.cpp:69] Creating Layer ip2
I1129 21:38:42.332032  2470 net.cpp:400] ip2 <- ip1
I1129 21:38:42.332049  2470 net.cpp:362] ip2 -> ip2
I1129 21:38:42.332064  2470 net.cpp:98] Setting up ip2
I1129 21:38:42.332166  2470 net.cpp:105] Top shape: 128 10 1 1 (1280)
I1129 21:38:42.332190  2470 net.cpp:69] Creating Layer loss
I1129 21:38:42.332199  2470 net.cpp:400] loss <- ip2
I1129 21:38:42.332211  2470 net.cpp:400] loss <- label
I1129 21:38:42.332223  2470 net.cpp:362] loss -> loss
I1129 21:38:42.332237  2470 net.cpp:98] Setting up loss
I1129 21:38:42.332253  2470 net.cpp:105] Top shape: 1 1 1 1 (1)
I1129 21:38:42.332269  2470 net.cpp:112]     with loss weight 1
I1129 21:38:42.332286  2470 net.cpp:175] loss needs backward computation.
I1129 21:38:42.332296  2470 net.cpp:175] ip2 needs backward computation.
I1129 21:38:42.332305  2470 net.cpp:175] relu3 needs backward computation.
I1129 21:38:42.332314  2470 net.cpp:175] ip1 needs backward computation.
I1129 21:38:42.332334  2470 net.cpp:175] pool2 needs backward computation.
…
I1129 21:38:42.332841  2470 solver.cpp:154] Creating test net (#0) specified by net file: protos/sicnn_train10k_train_test_mnist-sc_split5.prototxt
I1129 21:38:42.332895  2470 net.cpp:281] The NetState phase (1) differed from the phase (0) specified by a rule in layer mnist
I1129 21:38:42.333114  2470 net.cpp:41] Initializing net from parameters: 
name: "MNIST-sicnn-Table-1-split-5"
layers {
  top: "data"
  top: "label"
  name: "mnist"
  type: HDF5_DATA
  hdf5_data_param {
    source: "../../data/mnist/table1/10k_split5_train.txt"
    batch_size: 100
  }
  include {
    phase: TEST
  }
}
layers {
  bottom: "data"
  top: "conv1"
  name: "conv1"
  type: TICONV
  blobs_lr: 1
  blobs_lr: 2
  weight_decay: 1
  weight_decay: 0
  convolution_param {
    num_output: 36
    kernel_size: 7
    stride: 1
    weight_filler {
      type: "gaussian"
      std: 0.01
    }
    bias_filler {
      type: "constant"
    }
  }
  transformations {
  }
  transformations {
    scale: 0.63
  }
  transformations {
    scale: 0.7937
  }
  transformations {
    scale: 1.2599
  }
  transformations {
    scale: 1.5874
  }
  transformations {
    scale: 2
  }
}
layers {
  bottom: "conv1"
  top: "conv1"
  name: "relu1"
  type: RELU
}
layers {
  bottom: "conv1"
  top: "pool1"
  name: "pool1"
  type: POOLING
  pooling_param {
    pool: MAX
    kernel_size: 2
    stride: 2
  }
}
layers {
  bottom: "pool1"
  top: "conv2"
  name: "conv2"
  type: TICONV
  blobs_lr: 1
  blobs_lr: 2
  weight_decay: 1
  weight_decay: 0
  convolution_param {
    num_output: 64
    kernel_size: 5
    stride: 1
    weight_filler {
      type: "gaussian"
      std: 0.01
    }
    bias_filler {
      type: "constant"
    }
  }
  transformations {
  }
  transformations {
    scale: 0.63
  }
  transformations {
    scale: 0.7937
  }
  transformations {
    scale: 1.2599
  }
  transformations {
    scale: 1.5874
  }
  transformations {
    scale: 2
  }
}
layers {
  bottom: "conv2"
  top: "conv2"
  name: "relu2"
  type: RELU
}
layers {
  bottom: "conv2"
  top: "pool2"
  name: "pool2"
  type: POOLING
  pooling_param {
    pool: MAX
    kernel_size: 3
    stride: 3
  }
}
layers {
  bottom: "pool2"
  top: "ip1"
  name: "ip1"
  type: INNER_PRODUCT
  blobs_lr: 1
  blobs_lr: 2
  weight_decay: 1
  weight_decay: 0
  inner_product_param {
    num_output: 150
    weight_filler {
      type: "gaussian"
      std: 0.1
    }
    bias_filler {
      type: "constant"
    }
  }
}
layers {
  bottom: "ip1"
  top: "ip1"
  name: "relu3"
  type: RELU
}
layers {
  bottom: "ip1"
  top: "ip2"
  name: "ip2"
  type: INNER_PRODUCT
  blobs_lr: 1
  blobs_lr: 2
  weight_decay: 1
  weight_decay: 0
  inner_product_param {
    num_output: 10
    weight_filler {
      type: "gaussian"
      std: 0.1
    }
    bias_filler {
      type: "constant"
    }
  }
}
layers {
  bottom: "ip2"
  bottom: "label"
  top: "accuracy"
  name: "accuracy"
  type: ACCURACY
  include {
    phase: TEST
  }
}
layers {
  bottom: "ip2"
  bottom: "label"
  top: "loss"
  name: "loss"
  type: SOFTMAX_LOSS
}
state {
  phase: TEST
}
I1129 21:38:42.333286  2470 net.cpp:69] Creating Layer mnist
I1129 21:38:42.333300  2470 net.cpp:362] mnist -> data
I1129 21:38:42.333317  2470 net.cpp:362] mnist -> label
I1129 21:38:42.333331  2470 net.cpp:98] Setting up mnist
I1129 21:38:42.333341  2470 hdf5_data_layer.cpp:61] Loading filename from ../../data/mnist/table1/10k_split5_train.txt
I1129 21:38:42.333678  2470 hdf5_data_layer.cpp:73] Number of files: 5
I1129 21:38:42.333698  2470 hdf5_data_layer.cpp:76] Loading HDF5 file/root/si-convnet/data/mnist/table1/mnist-sc-uniform-10ksplit-set-1.h5
I1129 21:38:42.363425  2470 hdf5_data_layer.cpp:86] output data size: 100,1,28,28
I1129 21:38:42.363485  2470 net.cpp:105] Top shape: 100 1 28 28 (78400)
I1129 21:38:42.363498  2470 net.cpp:105] Top shape: 100 1 1 1 (100)
I1129 21:38:42.363523  2470 net.cpp:69] Creating Layer label_mnist_1_split
I1129 21:38:42.363534  2470 net.cpp:400] label_mnist_1_split <- label
I1129 21:38:42.363550  2470 net.cpp:362] label_mnist_1_split -> label_mnist_1_split_0
I1129 21:38:42.363572  2470 net.cpp:362] label_mnist_1_split -> label_mnist_1_split_1
I1129 21:38:42.363587  2470 net.cpp:98] Setting up label_mnist_1_split
I1129 21:38:42.363600  2470 net.cpp:105] Top shape: 100 1 1 1 (100)
I1129 21:38:42.363610  2470 net.cpp:105] Top shape: 100 1 1 1 (100)
I1129 21:38:42.363628  2470 net.cpp:69] Creating Layer conv1
I1129 21:38:42.363638  2470 net.cpp:400] conv1 <- data
I1129 21:38:42.363653  2470 net.cpp:362] conv1 -> conv1
I1129 21:38:42.363713  2470 net.cpp:98] Setting up conv1
I1129 21:38:42.363725  2470 ticonv_layer.cpp:27] TIConvolution layer using 6 transformations conv1 using interpolation: 1
I1129 21:38:42.363734  2470 ticonv_layer.cpp:33]  T0 :  sc: 1, rot: 0
I1129 21:38:42.363772  2470 ticonv_layer.cpp:33]  T1 :  sc: 0.63, rot: 0
I1129 21:38:42.363788  2470 ticonv_layer.cpp:33]  T2 :  sc: 0.7937, rot: 0
I1129 21:38:42.363801  2470 ticonv_layer.cpp:33]  T3 :  sc: 1.2599, rot: 0
I1129 21:38:42.363813  2470 ticonv_layer.cpp:33]  T4 :  sc: 1.5874, rot: 0
I1129 21:38:42.363826  2470 ticonv_layer.cpp:33]  T5 :  sc: 2, rot: 0
I1129 21:38:42.363837  2470 ticonv_layer.cpp:37]   Creating Upsampling Layer in conv1
I1129 21:38:42.364738  2470 ticonv_layer.cpp:51]   Top shape: 1 28 28
I1129 21:38:42.364760  2470 ticonv_layer.cpp:51]   Top shape: 1 17 17
I1129 21:38:42.364769  2470 ticonv_layer.cpp:51]   Top shape: 1 22 22
I1129 21:38:42.364778  2470 ticonv_layer.cpp:51]   Top shape: 1 35 35
I1129 21:38:42.364786  2470 ticonv_layer.cpp:51]   Top shape: 1 44 44
I1129 21:38:42.364794  2470 ticonv_layer.cpp:51]   Top shape: 1 56 56
I1129 21:38:42.364802  2470 ticonv_layer.cpp:58]   Creating TiedConv Layer in conv1
I1129 21:38:42.364950  2470 ticonv_layer.cpp:70]   Top shape: 36 22 22
I1129 21:38:42.364967  2470 ticonv_layer.cpp:70]   Top shape: 36 11 11
I1129 21:38:42.364975  2470 ticonv_layer.cpp:70]   Top shape: 36 16 16
I1129 21:38:42.364984  2470 ticonv_layer.cpp:70]   Top shape: 36 29 29
I1129 21:38:42.364992  2470 ticonv_layer.cpp:70]   Top shape: 36 38 38
I1129 21:38:42.365000  2470 ticonv_layer.cpp:70]   Top shape: 36 50 50
I1129 21:38:42.365010  2470 ticonv_layer.cpp:82]   Creating DownPooling Layer in conv1
I1129 21:38:42.365532  2470 net.cpp:105] Top shape: 100 36 22 22 (1742400)
I1129 21:38:42.365569  2470 net.cpp:69] Creating Layer relu1
I1129 21:38:42.365581  2470 net.cpp:400] relu1 <- conv1
I1129 21:38:42.365593  2470 net.cpp:351] relu1 -> conv1 (in-place)
I1129 21:38:42.365607  2470 net.cpp:98] Setting up relu1
I1129 21:38:42.365617  2470 net.cpp:105] Top shape: 100 36 22 22 (1742400)
I1129 21:38:42.365631  2470 net.cpp:69] Creating Layer pool1
I1129 21:38:42.365640  2470 net.cpp:400] pool1 <- conv1
I1129 21:38:42.365653  2470 net.cpp:362] pool1 -> pool1
I1129 21:38:42.365666  2470 net.cpp:98] Setting up pool1
I1129 21:38:42.365679  2470 net.cpp:105] Top shape: 100 36 11 11 (435600)
I1129 21:38:42.365694  2470 net.cpp:69] Creating Layer conv2
I1129 21:38:42.365712  2470 net.cpp:400] conv2 <- pool1
I1129 21:38:42.365726  2470 net.cpp:362] conv2 -> conv2
I1129 21:38:42.365741  2470 net.cpp:98] Setting up conv2
I1129 21:38:42.365751  2470 ticonv_layer.cpp:27] TIConvolution layer using 6 transformations conv2 using interpolation: 1
I1129 21:38:42.365759  2470 ticonv_layer.cpp:33]  T0 :  sc: 1, rot: 0
I1129 21:38:42.365777  2470 ticonv_layer.cpp:33]  T1 :  sc: 0.63, rot: 0
I1129 21:38:42.365790  2470 ticonv_layer.cpp:33]  T2 :  sc: 0.7937, rot: 0
I1129 21:38:42.365803  2470 ticonv_layer.cpp:33]  T3 :  sc: 1.2599, rot: 0
I1129 21:38:42.365814  2470 ticonv_layer.cpp:33]  T4 :  sc: 1.5874, rot: 0
I1129 21:38:42.365826  2470 ticonv_layer.cpp:33]  T5 :  sc: 2, rot: 0
I1129 21:38:42.365839  2470 ticonv_layer.cpp:37]   Creating Upsampling Layer in conv2
I1129 21:38:42.366164  2470 ticonv_layer.cpp:51]   Top shape: 36 11 11
I1129 21:38:42.366183  2470 ticonv_layer.cpp:51]   Top shape: 36 6 6
I1129 21:38:42.366191  2470 ticonv_layer.cpp:51]   Top shape: 36 8 8
I1129 21:38:42.366199  2470 ticonv_layer.cpp:51]   Top shape: 36 13 13
I1129 21:38:42.366207  2470 ticonv_layer.cpp:51]   Top shape: 36 17 17
I1129 21:38:42.366216  2470 ticonv_layer.cpp:51]   Top shape: 36 22 22
I1129 21:38:42.366225  2470 ticonv_layer.cpp:58]   Creating TiedConv Layer in conv2
I1129 21:38:42.369477  2470 ticonv_layer.cpp:70]   Top shape: 64 7 7
I1129 21:38:42.369498  2470 ticonv_layer.cpp:70]   Top shape: 64 2 2
I1129 21:38:42.369508  2470 ticonv_layer.cpp:70]   Top shape: 64 4 4
I1129 21:38:42.369515  2470 ticonv_layer.cpp:70]   Top shape: 64 9 9
I1129 21:38:42.369556  2470 ticonv_layer.cpp:70]   Top shape: 64 13 13
I1129 21:38:42.369565  2470 ticonv_layer.cpp:70]   Top shape: 64 18 18
I1129 21:38:42.369575  2470 ticonv_layer.cpp:82]   Creating DownPooling Layer in conv2
I1129 21:38:42.369837  2470 net.cpp:105] Top shape: 100 64 7 7 (313600)
I1129 21:38:42.369868  2470 net.cpp:69] Creating Layer relu2
I1129 21:38:42.369879  2470 net.cpp:400] relu2 <- conv2
I1129 21:38:42.369890  2470 net.cpp:351] relu2 -> conv2 (in-place)
I1129 21:38:42.369904  2470 net.cpp:98] Setting up relu2
I1129 21:38:42.369913  2470 net.cpp:105] Top shape: 100 64 7 7 (313600)
I1129 21:38:42.369925  2470 net.cpp:69] Creating Layer pool2
I1129 21:38:42.369933  2470 net.cpp:400] pool2 <- conv2
I1129 21:38:42.369946  2470 net.cpp:362] pool2 -> pool2
I1129 21:38:42.369959  2470 net.cpp:98] Setting up pool2
I1129 21:38:42.369971  2470 net.cpp:105] Top shape: 100 64 3 3 (57600)
I1129 21:38:42.369987  2470 net.cpp:69] Creating Layer ip1
I1129 21:38:42.369995  2470 net.cpp:400] ip1 <- pool2
I1129 21:38:42.370009  2470 net.cpp:362] ip1 -> ip1
I1129 21:38:42.370024  2470 net.cpp:98] Setting up ip1
I1129 21:38:42.375133  2470 net.cpp:105] Top shape: 100 150 1 1 (15000)
I1129 21:38:42.375164  2470 net.cpp:69] Creating Layer relu3
I1129 21:38:42.375175  2470 net.cpp:400] relu3 <- ip1
I1129 21:38:42.375187  2470 net.cpp:351] relu3 -> ip1 (in-place)
I1129 21:38:42.375200  2470 net.cpp:98] Setting up relu3
I1129 21:38:42.375210  2470 net.cpp:105] Top shape: 100 150 1 1 (15000)
I1129 21:38:42.375222  2470 net.cpp:69] Creating Layer ip2
I1129 21:38:42.375231  2470 net.cpp:400] ip2 <- ip1
I1129 21:38:42.375243  2470 net.cpp:362] ip2 -> ip2
I1129 21:38:42.375257  2470 net.cpp:98] Setting up ip2
I1129 21:38:42.375358  2470 net.cpp:105] Top shape: 100 10 1 1 (1000)
I1129 21:38:42.375380  2470 net.cpp:69] Creating Layer ip2_ip2_0_split
I1129 21:38:42.375389  2470 net.cpp:400] ip2_ip2_0_split <- ip2
I1129 21:38:42.375401  2470 net.cpp:362] ip2_ip2_0_split -> ip2_ip2_0_split_0
I1129 21:38:42.375417  2470 net.cpp:362] ip2_ip2_0_split -> ip2_ip2_0_split_1
I1129 21:38:42.375430  2470 net.cpp:98] Setting up ip2_ip2_0_split
I1129 21:38:42.375440  2470 net.cpp:105] Top shape: 100 10 1 1 (1000)
I1129 21:38:42.375450  2470 net.cpp:105] Top shape: 100 10 1 1 (1000)
I1129 21:38:42.375463  2470 net.cpp:69] Creating Layer accuracy
I1129 21:38:42.375473  2470 net.cpp:400] accuracy <- ip2_ip2_0_split_0
I1129 21:38:42.375483  2470 net.cpp:400] accuracy <- label_mnist_1_split_0
I1129 21:38:42.375497  2470 net.cpp:362] accuracy -> accuracy
I1129 21:38:42.375510  2470 net.cpp:98] Setting up accuracy
I1129 21:38:42.375520  2470 net.cpp:105] Top shape: 1 1 1 1 (1)
I1129 21:38:42.375541  2470 net.cpp:69] Creating Layer loss
I1129 21:38:42.375557  2470 net.cpp:400] loss <- ip2_ip2_0_split_1
I1129 21:38:42.375569  2470 net.cpp:400] loss <- label_mnist_1_split_1
I1129 21:38:42.375582  2470 net.cpp:362] loss -> loss
I1129 21:38:42.375596  2470 net.cpp:98] Setting up loss
I1129 21:38:42.375610  2470 net.cpp:105] Top shape: 1 1 1 1 (1)
I1129 21:38:42.375620  2470 net.cpp:112]     with loss weight 1
I1129 21:38:42.375640  2470 net.cpp:175] loss needs backward computation.
I1129 21:38:42.375651  2470 net.cpp:177] accuracy does not need backward computation.
I1129 21:38:42.375660  2470 net.cpp:175] ip2_ip2_0_split needs backward computation.
I1129 21:38:42.375669  2470 net.cpp:175] ip2 needs backward computation.
I1129 21:38:42.375677  2470 net.cpp:175] relu3 needs backward computation.
…
