…
I1129 14:36:58.194494   677 solver.cpp:71] Creating training net from net file: protos/sicnn_train10k_train_test_mnist-sc_split2.prototxt
I1129 14:36:58.194900   677 net.cpp:281] The NetState phase (0) differed from the phase (1) specified by a rule in layer mnist
I1129 14:36:58.194934   677 net.cpp:281] The NetState phase (0) differed from the phase (1) specified by a rule in layer accuracy
I1129 14:36:58.195132   677 net.cpp:41] Initializing net from parameters: 
name: "MNIST-sicnn-Table-1-split-2"
layers {
  top: "data"
  top: "label"
  name: "mnist"
  type: HDF5_DATA
  hdf5_data_param {
    source: "../../data/mnist/table1/10k_split2_test.txt"
    batch_size: 128
  }
  include {
    phase: TRAIN
  }
}
layers {
  bottom: "data"
  top: "conv1"
  name: "conv1"
  type: TICONV
  blobs_lr: 1
  blobs_lr: 2
  weight_decay: 1
  weight_decay: 0
  convolution_param {
    num_output: 36
    kernel_size: 7
    stride: 1
    weight_filler {
      type: "gaussian"
      std: 0.01
    }
    bias_filler {
      type: "constant"
    }
  }
  transformations {
  }
  transformations {
    scale: 0.63
  }
  transformations {
    scale: 0.7937
  }
  transformations {
    scale: 1.2599
  }
  transformations {
    scale: 1.5874
  }
  transformations {
    scale: 2
  }
}
layers {
  bottom: "conv1"
  top: "conv1"
  name: "relu1"
  type: RELU
}
layers {
  bottom: "conv1"
  top: "pool1"
  name: "pool1"
  type: POOLING
  pooling_param {
    pool: MAX
    kernel_size: 2
    stride: 2
  }
}
layers {
  bottom: "pool1"
  top: "conv2"
  name: "conv2"
  type: TICONV
  blobs_lr: 1
  blobs_lr: 2
  weight_decay: 1
  weight_decay: 0
  convolution_param {
    num_output: 64
    kernel_size: 5
    stride: 1
    weight_filler {
      type: "gaussian"
      std: 0.01
    }
    bias_filler {
      type: "constant"
    }
  }
  transformations {
  }
  transformations {
    scale: 0.63
  }
  transformations {
    scale: 0.7937
  }
  transformations {
    scale: 1.2599
  }
  transformations {
    scale: 1.5874
  }
  transformations {
    scale: 2
  }
}
layers {
  bottom: "conv2"
  top: "conv2"
  name: "relu2"
  type: RELU
}
layers {
  bottom: "conv2"
  top: "pool2"
  name: "pool2"
  type: POOLING
  pooling_param {
    pool: MAX
    kernel_size: 3
    stride: 3
  }
}
layers {
  bottom: "pool2"
  top: "ip1"
  name: "ip1"
  type: INNER_PRODUCT
  blobs_lr: 1
  blobs_lr: 2
  weight_decay: 1
  weight_decay: 0
  inner_product_param {
    num_output: 150
    weight_filler {
      type: "gaussian"
      std: 0.1
    }
    bias_filler {
      type: "constant"
    }
  }
}
layers {
  bottom: "ip1"
  top: "ip1"
  name: "relu3"
  type: RELU
}
layers {
  bottom: "ip1"
  top: "ip2"
  name: "ip2"
  type: INNER_PRODUCT
  blobs_lr: 1
  blobs_lr: 2
  weight_decay: 1
  weight_decay: 0
  inner_product_param {
    num_output: 10
    weight_filler {
      type: "gaussian"
      std: 0.1
    }
    bias_filler {
      type: "constant"
    }
  }
}
layers {
  bottom: "ip2"
  bottom: "label"
  top: "loss"
  name: "loss"
  type: SOFTMAX_LOSS
}
state {
  phase: TRAIN
}
I1129 14:36:58.195276   677 net.cpp:69] Creating Layer mnist
I1129 14:36:58.195297   677 net.cpp:362] mnist -> data
I1129 14:36:58.195317   677 net.cpp:362] mnist -> label
I1129 14:36:58.195333   677 net.cpp:98] Setting up mnist
I1129 14:36:58.195343   677 hdf5_data_layer.cpp:61] Loading filename from ../../data/mnist/table1/10k_split2_test.txt
I1129 14:36:58.195580   677 hdf5_data_layer.cpp:73] Number of files: 1
I1129 14:36:58.195600   677 hdf5_data_layer.cpp:76] Loading HDF5 file/root/si-convnet/data/mnist/table1/mnist-sc-uniform-10ksplit-set-2.h5
I1129 14:36:58.287456   677 hdf5_data_layer.cpp:86] output data size: 128,1,28,28
I1129 14:36:58.287577   677 net.cpp:105] Top shape: 128 1 28 28 (100352)
I1129 14:36:58.287593   677 net.cpp:105] Top shape: 128 1 1 1 (128)
I1129 14:36:58.287621   677 net.cpp:69] Creating Layer conv1
I1129 14:36:58.287632   677 net.cpp:400] conv1 <- data
I1129 14:36:58.287648   677 net.cpp:362] conv1 -> conv1
I1129 14:36:58.287668   677 net.cpp:98] Setting up conv1
I1129 14:36:58.287690   677 ticonv_layer.cpp:27] TIConvolution layer using 6 transformations conv1 using interpolation: 1
I1129 14:36:58.287709   677 ticonv_layer.cpp:33]  T0 :  sc: 1, rot: 0
I1129 14:36:58.287775   677 ticonv_layer.cpp:33]  T1 :  sc: 0.63, rot: 0
I1129 14:36:58.287791   677 ticonv_layer.cpp:33]  T2 :  sc: 0.7937, rot: 0
I1129 14:36:58.287808   677 ticonv_layer.cpp:33]  T3 :  sc: 1.2599, rot: 0
I1129 14:36:58.287822   677 ticonv_layer.cpp:33]  T4 :  sc: 1.5874, rot: 0
I1129 14:36:58.287834   677 ticonv_layer.cpp:33]  T5 :  sc: 2, rot: 0
I1129 14:36:58.287847   677 ticonv_layer.cpp:37]   Creating Upsampling Layer in conv1
I1129 14:36:58.319248   677 ticonv_layer.cpp:51]   Top shape: 1 28 28
I1129 14:36:58.319278   677 ticonv_layer.cpp:51]   Top shape: 1 17 17
I1129 14:36:58.319288   677 ticonv_layer.cpp:51]   Top shape: 1 22 22
I1129 14:36:58.319295   677 ticonv_layer.cpp:51]   Top shape: 1 35 35
I1129 14:36:58.319304   677 ticonv_layer.cpp:51]   Top shape: 1 44 44
I1129 14:36:58.319311   677 ticonv_layer.cpp:51]   Top shape: 1 56 56
I1129 14:36:58.319319   677 ticonv_layer.cpp:58]   Creating TiedConv Layer in conv1
I1129 14:36:58.319490   677 ticonv_layer.cpp:70]   Top shape: 36 22 22
I1129 14:36:58.319509   677 ticonv_layer.cpp:70]   Top shape: 36 11 11
I1129 14:36:58.319517   677 ticonv_layer.cpp:70]   Top shape: 36 16 16
I1129 14:36:58.319525   677 ticonv_layer.cpp:70]   Top shape: 36 29 29
I1129 14:36:58.319533   677 ticonv_layer.cpp:70]   Top shape: 36 38 38
I1129 14:36:58.319541   677 ticonv_layer.cpp:70]   Top shape: 36 50 50
I1129 14:36:58.319550   677 ticonv_layer.cpp:82]   Creating DownPooling Layer in conv1
I1129 14:36:58.320040   677 net.cpp:105] Top shape: 128 36 22 22 (2230272)
I1129 14:36:58.320081   677 net.cpp:69] Creating Layer relu1
I1129 14:36:58.320093   677 net.cpp:400] relu1 <- conv1
I1129 14:36:58.320106   677 net.cpp:351] relu1 -> conv1 (in-place)
I1129 14:36:58.320119   677 net.cpp:98] Setting up relu1
I1129 14:36:58.320129   677 net.cpp:105] Top shape: 128 36 22 22 (2230272)
I1129 14:36:58.320142   677 net.cpp:69] Creating Layer pool1
I1129 14:36:58.320150   677 net.cpp:400] pool1 <- conv1
I1129 14:36:58.320163   677 net.cpp:362] pool1 -> pool1
I1129 14:36:58.320175   677 net.cpp:98] Setting up pool1
I1129 14:36:58.320200   677 net.cpp:105] Top shape: 128 36 11 11 (557568)
I1129 14:36:58.320217   677 net.cpp:69] Creating Layer conv2
I1129 14:36:58.320231   677 net.cpp:400] conv2 <- pool1
I1129 14:36:58.320245   677 net.cpp:362] conv2 -> conv2
I1129 14:36:58.320261   677 net.cpp:98] Setting up conv2
I1129 14:36:58.320269   677 ticonv_layer.cpp:27] TIConvolution layer using 6 transformations conv2 using interpolation: 1
I1129 14:36:58.320278   677 ticonv_layer.cpp:33]  T0 :  sc: 1, rot: 0
I1129 14:36:58.320302   677 ticonv_layer.cpp:33]  T1 :  sc: 0.63, rot: 0
I1129 14:36:58.320315   677 ticonv_layer.cpp:33]  T2 :  sc: 0.7937, rot: 0
I1129 14:36:58.320328   677 ticonv_layer.cpp:33]  T3 :  sc: 1.2599, rot: 0
I1129 14:36:58.320340   677 ticonv_layer.cpp:33]  T4 :  sc: 1.5874, rot: 0
I1129 14:36:58.320353   677 ticonv_layer.cpp:33]  T5 :  sc: 2, rot: 0
I1129 14:36:58.320363   677 ticonv_layer.cpp:37]   Creating Upsampling Layer in conv2
I1129 14:36:58.320729   677 ticonv_layer.cpp:51]   Top shape: 36 11 11
I1129 14:36:58.320746   677 ticonv_layer.cpp:51]   Top shape: 36 6 6
I1129 14:36:58.320755   677 ticonv_layer.cpp:51]   Top shape: 36 8 8
I1129 14:36:58.320763   677 ticonv_layer.cpp:51]   Top shape: 36 13 13
I1129 14:36:58.320771   677 ticonv_layer.cpp:51]   Top shape: 36 17 17
I1129 14:36:58.320780   677 ticonv_layer.cpp:51]   Top shape: 36 22 22
I1129 14:36:58.320787   677 ticonv_layer.cpp:58]   Creating TiedConv Layer in conv2
I1129 14:36:58.324324   677 ticonv_layer.cpp:70]   Top shape: 64 7 7
I1129 14:36:58.324347   677 ticonv_layer.cpp:70]   Top shape: 64 2 2
I1129 14:36:58.324355   677 ticonv_layer.cpp:70]   Top shape: 64 4 4
I1129 14:36:58.324363   677 ticonv_layer.cpp:70]   Top shape: 64 9 9
I1129 14:36:58.324371   677 ticonv_layer.cpp:70]   Top shape: 64 13 13
I1129 14:36:58.324379   677 ticonv_layer.cpp:70]   Top shape: 64 18 18
I1129 14:36:58.324388   677 ticonv_layer.cpp:82]   Creating DownPooling Layer in conv2
I1129 14:36:58.324659   677 net.cpp:105] Top shape: 128 64 7 7 (401408)
I1129 14:36:58.324688   677 net.cpp:69] Creating Layer relu2
I1129 14:36:58.324699   677 net.cpp:400] relu2 <- conv2
I1129 14:36:58.324712   677 net.cpp:351] relu2 -> conv2 (in-place)
I1129 14:36:58.324724   677 net.cpp:98] Setting up relu2
I1129 14:36:58.324739   677 net.cpp:105] Top shape: 128 64 7 7 (401408)
I1129 14:36:58.324753   677 net.cpp:69] Creating Layer pool2
I1129 14:36:58.324760   677 net.cpp:400] pool2 <- conv2
I1129 14:36:58.324772   677 net.cpp:362] pool2 -> pool2
I1129 14:36:58.324785   677 net.cpp:98] Setting up pool2
I1129 14:36:58.324796   677 net.cpp:105] Top shape: 128 64 3 3 (73728)
I1129 14:36:58.324811   677 net.cpp:69] Creating Layer ip1
I1129 14:36:58.324820   677 net.cpp:400] ip1 <- pool2
I1129 14:36:58.324837   677 net.cpp:362] ip1 -> ip1
I1129 14:36:58.324851   677 net.cpp:98] Setting up ip1
I1129 14:36:58.330022   677 net.cpp:105] Top shape: 128 150 1 1 (19200)
I1129 14:36:58.330060   677 net.cpp:69] Creating Layer relu3
I1129 14:36:58.330071   677 net.cpp:400] relu3 <- ip1
I1129 14:36:58.330086   677 net.cpp:351] relu3 -> ip1 (in-place)
I1129 14:36:58.330099   677 net.cpp:98] Setting up relu3
I1129 14:36:58.330108   677 net.cpp:105] Top shape: 128 150 1 1 (19200)
I1129 14:36:58.330121   677 net.cpp:69] Creating Layer ip2
I1129 14:36:58.330130   677 net.cpp:400] ip2 <- ip1
I1129 14:36:58.330142   677 net.cpp:362] ip2 -> ip2
I1129 14:36:58.330158   677 net.cpp:98] Setting up ip2
I1129 14:36:58.330279   677 net.cpp:105] Top shape: 128 10 1 1 (1280)
I1129 14:36:58.330305   677 net.cpp:69] Creating Layer loss
I1129 14:36:58.330317   677 net.cpp:400] loss <- ip2
I1129 14:36:58.330327   677 net.cpp:400] loss <- label
I1129 14:36:58.330340   677 net.cpp:362] loss -> loss
I1129 14:36:58.330358   677 net.cpp:98] Setting up loss
I1129 14:36:58.330375   677 net.cpp:105] Top shape: 1 1 1 1 (1)
I1129 14:36:58.330389   677 net.cpp:112]     with loss weight 1
I1129 14:36:58.330404   677 net.cpp:175] loss needs backward computation.
I1129 14:36:58.330415   677 net.cpp:175] ip2 needs backward computation.
I1129 14:36:58.330423   677 net.cpp:175] relu3 needs backward computation.
I1129 14:36:58.330431   677 net.cpp:175] ip1 needs backward computation.
I1129 14:36:58.330440   677 net.cpp:175] pool2 needs backward computation.
…
I1129 14:36:58.330961   677 solver.cpp:154] Creating test net (#0) specified by net file: protos/sicnn_train10k_train_test_mnist-sc_split2.prototxt
I1129 14:36:58.331017   677 net.cpp:281] The NetState phase (1) differed from the phase (0) specified by a rule in layer mnist
I1129 14:36:58.331248   677 net.cpp:41] Initializing net from parameters: 
name: "MNIST-sicnn-Table-1-split-2"
layers {
  top: "data"
  top: "label"
  name: "mnist"
  type: HDF5_DATA
  hdf5_data_param {
    source: "../../data/mnist/table1/10k_split2_train.txt"
    batch_size: 100
  }
  include {
    phase: TEST
  }
}
layers {
  bottom: "data"
  top: "conv1"
  name: "conv1"
  type: TICONV
  blobs_lr: 1
  blobs_lr: 2
  weight_decay: 1
  weight_decay: 0
  convolution_param {
    num_output: 36
    kernel_size: 7
    stride: 1
    weight_filler {
      type: "gaussian"
      std: 0.01
    }
    bias_filler {
      type: "constant"
    }
  }
  transformations {
  }
  transformations {
    scale: 0.63
  }
  transformations {
    scale: 0.7937
  }
  transformations {
    scale: 1.2599
  }
  transformations {
    scale: 1.5874
  }
  transformations {
    scale: 2
  }
}
layers {
  bottom: "conv1"
  top: "conv1"
  name: "relu1"
  type: RELU
}
layers {
  bottom: "conv1"
  top: "pool1"
  name: "pool1"
  type: POOLING
  pooling_param {
    pool: MAX
    kernel_size: 2
    stride: 2
  }
}
layers {
  bottom: "pool1"
  top: "conv2"
  name: "conv2"
  type: TICONV
  blobs_lr: 1
  blobs_lr: 2
  weight_decay: 1
  weight_decay: 0
  convolution_param {
    num_output: 64
    kernel_size: 5
    stride: 1
    weight_filler {
      type: "gaussian"
      std: 0.01
    }
    bias_filler {
      type: "constant"
    }
  }
  transformations {
  }
  transformations {
    scale: 0.63
  }
  transformations {
    scale: 0.7937
  }
  transformations {
    scale: 1.2599
  }
  transformations {
    scale: 1.5874
  }
  transformations {
    scale: 2
  }
}
layers {
  bottom: "conv2"
  top: "conv2"
  name: "relu2"
  type: RELU
}
layers {
  bottom: "conv2"
  top: "pool2"
  name: "pool2"
  type: POOLING
  pooling_param {
    pool: MAX
    kernel_size: 3
    stride: 3
  }
}
layers {
  bottom: "pool2"
  top: "ip1"
  name: "ip1"
  type: INNER_PRODUCT
  blobs_lr: 1
  blobs_lr: 2
  weight_decay: 1
  weight_decay: 0
  inner_product_param {
    num_output: 150
    weight_filler {
      type: "gaussian"
      std: 0.1
    }
    bias_filler {
      type: "constant"
    }
  }
}
layers {
  bottom: "ip1"
  top: "ip1"
  name: "relu3"
  type: RELU
}
layers {
  bottom: "ip1"
  top: "ip2"
  name: "ip2"
  type: INNER_PRODUCT
  blobs_lr: 1
  blobs_lr: 2
  weight_decay: 1
  weight_decay: 0
  inner_product_param {
    num_output: 10
    weight_filler {
      type: "gaussian"
      std: 0.1
    }
    bias_filler {
      type: "constant"
    }
  }
}
layers {
  bottom: "ip2"
  bottom: "label"
  top: "accuracy"
  name: "accuracy"
  type: ACCURACY
  include {
    phase: TEST
  }
}
layers {
  bottom: "ip2"
  bottom: "label"
  top: "loss"
  name: "loss"
  type: SOFTMAX_LOSS
}
state {
  phase: TEST
}
I1129 14:36:58.331421   677 net.cpp:69] Creating Layer mnist
I1129 14:36:58.331437   677 net.cpp:362] mnist -> data
I1129 14:36:58.331454   677 net.cpp:362] mnist -> label
I1129 14:36:58.331470   677 net.cpp:98] Setting up mnist
I1129 14:36:58.331478   677 hdf5_data_layer.cpp:61] Loading filename from ../../data/mnist/table1/10k_split2_train.txt
I1129 14:36:58.331591   677 hdf5_data_layer.cpp:73] Number of files: 5
I1129 14:36:58.331604   677 hdf5_data_layer.cpp:76] Loading HDF5 file/root/si-convnet/data/mnist/table1/mnist-sc-uniform-10ksplit-set-1.h5
I1129 14:36:58.362836   677 hdf5_data_layer.cpp:86] output data size: 100,1,28,28
I1129 14:36:58.362890   677 net.cpp:105] Top shape: 100 1 28 28 (78400)
I1129 14:36:58.362903   677 net.cpp:105] Top shape: 100 1 1 1 (100)
I1129 14:36:58.362926   677 net.cpp:69] Creating Layer label_mnist_1_split
I1129 14:36:58.362936   677 net.cpp:400] label_mnist_1_split <- label
I1129 14:36:58.362951   677 net.cpp:362] label_mnist_1_split -> label_mnist_1_split_0
I1129 14:36:58.362972   677 net.cpp:362] label_mnist_1_split -> label_mnist_1_split_1
I1129 14:36:58.362984   677 net.cpp:98] Setting up label_mnist_1_split
I1129 14:36:58.362996   677 net.cpp:105] Top shape: 100 1 1 1 (100)
I1129 14:36:58.363006   677 net.cpp:105] Top shape: 100 1 1 1 (100)
I1129 14:36:58.363023   677 net.cpp:69] Creating Layer conv1
I1129 14:36:58.363031   677 net.cpp:400] conv1 <- data
I1129 14:36:58.363044   677 net.cpp:362] conv1 -> conv1
I1129 14:36:58.363106   677 net.cpp:98] Setting up conv1
I1129 14:36:58.363117   677 ticonv_layer.cpp:27] TIConvolution layer using 6 transformations conv1 using interpolation: 1
I1129 14:36:58.363127   677 ticonv_layer.cpp:33]  T0 :  sc: 1, rot: 0
I1129 14:36:58.363162   677 ticonv_layer.cpp:33]  T1 :  sc: 0.63, rot: 0
I1129 14:36:58.363178   677 ticonv_layer.cpp:33]  T2 :  sc: 0.7937, rot: 0
I1129 14:36:58.363190   677 ticonv_layer.cpp:33]  T3 :  sc: 1.2599, rot: 0
I1129 14:36:58.363202   677 ticonv_layer.cpp:33]  T4 :  sc: 1.5874, rot: 0
I1129 14:36:58.363214   677 ticonv_layer.cpp:33]  T5 :  sc: 2, rot: 0
I1129 14:36:58.363227   677 ticonv_layer.cpp:37]   Creating Upsampling Layer in conv1
I1129 14:36:58.364102   677 ticonv_layer.cpp:51]   Top shape: 1 28 28
I1129 14:36:58.364122   677 ticonv_layer.cpp:51]   Top shape: 1 17 17
I1129 14:36:58.364131   677 ticonv_layer.cpp:51]   Top shape: 1 22 22
I1129 14:36:58.364140   677 ticonv_layer.cpp:51]   Top shape: 1 35 35
I1129 14:36:58.364148   677 ticonv_layer.cpp:51]   Top shape: 1 44 44
I1129 14:36:58.364156   677 ticonv_layer.cpp:51]   Top shape: 1 56 56
I1129 14:36:58.364164   677 ticonv_layer.cpp:58]   Creating TiedConv Layer in conv1
I1129 14:36:58.364311   677 ticonv_layer.cpp:70]   Top shape: 36 22 22
I1129 14:36:58.364326   677 ticonv_layer.cpp:70]   Top shape: 36 11 11
I1129 14:36:58.364336   677 ticonv_layer.cpp:70]   Top shape: 36 16 16
I1129 14:36:58.364343   677 ticonv_layer.cpp:70]   Top shape: 36 29 29
I1129 14:36:58.364351   677 ticonv_layer.cpp:70]   Top shape: 36 38 38
I1129 14:36:58.364359   677 ticonv_layer.cpp:70]   Top shape: 36 50 50
I1129 14:36:58.364368   677 ticonv_layer.cpp:82]   Creating DownPooling Layer in conv1
I1129 14:36:58.364815   677 net.cpp:105] Top shape: 100 36 22 22 (1742400)
I1129 14:36:58.364847   677 net.cpp:69] Creating Layer relu1
I1129 14:36:58.364858   677 net.cpp:400] relu1 <- conv1
I1129 14:36:58.364871   677 net.cpp:351] relu1 -> conv1 (in-place)
I1129 14:36:58.364902   677 net.cpp:98] Setting up relu1
I1129 14:36:58.364912   677 net.cpp:105] Top shape: 100 36 22 22 (1742400)
I1129 14:36:58.364926   677 net.cpp:69] Creating Layer pool1
I1129 14:36:58.364935   677 net.cpp:400] pool1 <- conv1
I1129 14:36:58.364948   677 net.cpp:362] pool1 -> pool1
I1129 14:36:58.364960   677 net.cpp:98] Setting up pool1
I1129 14:36:58.364972   677 net.cpp:105] Top shape: 100 36 11 11 (435600)
I1129 14:36:58.364986   677 net.cpp:69] Creating Layer conv2
I1129 14:36:58.364995   677 net.cpp:400] conv2 <- pool1
I1129 14:36:58.365008   677 net.cpp:362] conv2 -> conv2
I1129 14:36:58.365023   677 net.cpp:98] Setting up conv2
I1129 14:36:58.365031   677 ticonv_layer.cpp:27] TIConvolution layer using 6 transformations conv2 using interpolation: 1
I1129 14:36:58.365041   677 ticonv_layer.cpp:33]  T0 :  sc: 1, rot: 0
I1129 14:36:58.365057   677 ticonv_layer.cpp:33]  T1 :  sc: 0.63, rot: 0
I1129 14:36:58.365079   677 ticonv_layer.cpp:33]  T2 :  sc: 0.7937, rot: 0
I1129 14:36:58.365092   677 ticonv_layer.cpp:33]  T3 :  sc: 1.2599, rot: 0
I1129 14:36:58.365104   677 ticonv_layer.cpp:33]  T4 :  sc: 1.5874, rot: 0
I1129 14:36:58.365118   677 ticonv_layer.cpp:33]  T5 :  sc: 2, rot: 0
I1129 14:36:58.365129   677 ticonv_layer.cpp:37]   Creating Upsampling Layer in conv2
I1129 14:36:58.365463   677 ticonv_layer.cpp:51]   Top shape: 36 11 11
I1129 14:36:58.365481   677 ticonv_layer.cpp:51]   Top shape: 36 6 6
I1129 14:36:58.365490   677 ticonv_layer.cpp:51]   Top shape: 36 8 8
I1129 14:36:58.365499   677 ticonv_layer.cpp:51]   Top shape: 36 13 13
I1129 14:36:58.365507   677 ticonv_layer.cpp:51]   Top shape: 36 17 17
I1129 14:36:58.365515   677 ticonv_layer.cpp:51]   Top shape: 36 22 22
I1129 14:36:58.365523   677 ticonv_layer.cpp:58]   Creating TiedConv Layer in conv2
I1129 14:36:58.368796   677 ticonv_layer.cpp:70]   Top shape: 64 7 7
I1129 14:36:58.368816   677 ticonv_layer.cpp:70]   Top shape: 64 2 2
I1129 14:36:58.368825   677 ticonv_layer.cpp:70]   Top shape: 64 4 4
I1129 14:36:58.368834   677 ticonv_layer.cpp:70]   Top shape: 64 9 9
I1129 14:36:58.368903   677 ticonv_layer.cpp:70]   Top shape: 64 13 13
I1129 14:36:58.368914   677 ticonv_layer.cpp:70]   Top shape: 64 18 18
I1129 14:36:58.368923   677 ticonv_layer.cpp:82]   Creating DownPooling Layer in conv2
I1129 14:36:58.369191   677 net.cpp:105] Top shape: 100 64 7 7 (313600)
I1129 14:36:58.369220   677 net.cpp:69] Creating Layer relu2
I1129 14:36:58.369230   677 net.cpp:400] relu2 <- conv2
I1129 14:36:58.369242   677 net.cpp:351] relu2 -> conv2 (in-place)
I1129 14:36:58.369256   677 net.cpp:98] Setting up relu2
I1129 14:36:58.369264   677 net.cpp:105] Top shape: 100 64 7 7 (313600)
I1129 14:36:58.369277   677 net.cpp:69] Creating Layer pool2
I1129 14:36:58.369284   677 net.cpp:400] pool2 <- conv2
I1129 14:36:58.369297   677 net.cpp:362] pool2 -> pool2
I1129 14:36:58.369308   677 net.cpp:98] Setting up pool2
I1129 14:36:58.369319   677 net.cpp:105] Top shape: 100 64 3 3 (57600)
I1129 14:36:58.369334   677 net.cpp:69] Creating Layer ip1
I1129 14:36:58.369343   677 net.cpp:400] ip1 <- pool2
I1129 14:36:58.369355   677 net.cpp:362] ip1 -> ip1
I1129 14:36:58.369370   677 net.cpp:98] Setting up ip1
I1129 14:36:58.374521   677 net.cpp:105] Top shape: 100 150 1 1 (15000)
I1129 14:36:58.374552   677 net.cpp:69] Creating Layer relu3
I1129 14:36:58.374562   677 net.cpp:400] relu3 <- ip1
I1129 14:36:58.374573   677 net.cpp:351] relu3 -> ip1 (in-place)
I1129 14:36:58.374586   677 net.cpp:98] Setting up relu3
I1129 14:36:58.374595   677 net.cpp:105] Top shape: 100 150 1 1 (15000)
I1129 14:36:58.374608   677 net.cpp:69] Creating Layer ip2
I1129 14:36:58.374616   677 net.cpp:400] ip2 <- ip1
I1129 14:36:58.374629   677 net.cpp:362] ip2 -> ip2
I1129 14:36:58.374641   677 net.cpp:98] Setting up ip2
I1129 14:36:58.374748   677 net.cpp:105] Top shape: 100 10 1 1 (1000)
I1129 14:36:58.374769   677 net.cpp:69] Creating Layer ip2_ip2_0_split
I1129 14:36:58.374779   677 net.cpp:400] ip2_ip2_0_split <- ip2
I1129 14:36:58.374791   677 net.cpp:362] ip2_ip2_0_split -> ip2_ip2_0_split_0
I1129 14:36:58.374806   677 net.cpp:362] ip2_ip2_0_split -> ip2_ip2_0_split_1
I1129 14:36:58.374819   677 net.cpp:98] Setting up ip2_ip2_0_split
I1129 14:36:58.374830   677 net.cpp:105] Top shape: 100 10 1 1 (1000)
I1129 14:36:58.374840   677 net.cpp:105] Top shape: 100 10 1 1 (1000)
I1129 14:36:58.374852   677 net.cpp:69] Creating Layer accuracy
I1129 14:36:58.374861   677 net.cpp:400] accuracy <- ip2_ip2_0_split_0
I1129 14:36:58.374872   677 net.cpp:400] accuracy <- label_mnist_1_split_0
I1129 14:36:58.374886   677 net.cpp:362] accuracy -> accuracy
I1129 14:36:58.374898   677 net.cpp:98] Setting up accuracy
I1129 14:36:58.374908   677 net.cpp:105] Top shape: 1 1 1 1 (1)
I1129 14:36:58.374922   677 net.cpp:69] Creating Layer loss
I1129 14:36:58.374930   677 net.cpp:400] loss <- ip2_ip2_0_split_1
I1129 14:36:58.374939   677 net.cpp:400] loss <- label_mnist_1_split_1
I1129 14:36:58.374953   677 net.cpp:362] loss -> loss
I1129 14:36:58.374964   677 net.cpp:98] Setting up loss
I1129 14:36:58.374979   677 net.cpp:105] Top shape: 1 1 1 1 (1)
I1129 14:36:58.374987   677 net.cpp:112]     with loss weight 1
I1129 14:36:58.375003   677 net.cpp:175] loss needs backward computation.
I1129 14:36:58.375013   677 net.cpp:177] accuracy does not need backward computation.
I1129 14:36:58.375022   677 net.cpp:175] ip2_ip2_0_split needs backward computation.
I1129 14:36:58.375031   677 net.cpp:175] ip2 needs backward computation.
I1129 14:36:58.375041   677 net.cpp:175] relu3 needs backward computation.
…
