…
I1129 23:26:11.760138   685 solver.cpp:71] Creating training net from net file: protos/sicnn_train10k_train_test_mnist-sc_split6.prototxt
I1129 23:26:11.760535   685 net.cpp:281] The NetState phase (0) differed from the phase (1) specified by a rule in layer mnist
I1129 23:26:11.760568   685 net.cpp:281] The NetState phase (0) differed from the phase (1) specified by a rule in layer accuracy
I1129 23:26:11.760789   685 net.cpp:41] Initializing net from parameters: 
name: "MNIST-sicnn-Table-1-split-6"
layers {
  top: "data"
  top: "label"
  name: "mnist"
  type: HDF5_DATA
  hdf5_data_param {
    source: "../../data/mnist/table1/10k_split6_test.txt"
    batch_size: 128
  }
  include {
    phase: TRAIN
  }
}
layers {
  bottom: "data"
  top: "conv1"
  name: "conv1"
  type: TICONV
  blobs_lr: 1
  blobs_lr: 2
  weight_decay: 1
  weight_decay: 0
  convolution_param {
    num_output: 36
    kernel_size: 7
    stride: 1
    weight_filler {
      type: "gaussian"
      std: 0.01
    }
    bias_filler {
      type: "constant"
    }
  }
  transformations {
  }
  transformations {
    scale: 0.63
  }
  transformations {
    scale: 0.7937
  }
  transformations {
    scale: 1.2599
  }
  transformations {
    scale: 1.5874
  }
  transformations {
    scale: 2
  }
}
layers {
  bottom: "conv1"
  top: "conv1"
  name: "relu1"
  type: RELU
}
layers {
  bottom: "conv1"
  top: "pool1"
  name: "pool1"
  type: POOLING
  pooling_param {
    pool: MAX
    kernel_size: 2
    stride: 2
  }
}
layers {
  bottom: "pool1"
  top: "conv2"
  name: "conv2"
  type: TICONV
  blobs_lr: 1
  blobs_lr: 2
  weight_decay: 1
  weight_decay: 0
  convolution_param {
    num_output: 64
    kernel_size: 5
    stride: 1
    weight_filler {
      type: "gaussian"
      std: 0.01
    }
    bias_filler {
      type: "constant"
    }
  }
  transformations {
  }
  transformations {
    scale: 0.63
  }
  transformations {
    scale: 0.7937
  }
  transformations {
    scale: 1.2599
  }
  transformations {
    scale: 1.5874
  }
  transformations {
    scale: 2
  }
}
layers {
  bottom: "conv2"
  top: "conv2"
  name: "relu2"
  type: RELU
}
layers {
  bottom: "conv2"
  top: "pool2"
  name: "pool2"
  type: POOLING
  pooling_param {
    pool: MAX
    kernel_size: 3
    stride: 3
  }
}
layers {
  bottom: "pool2"
  top: "ip1"
  name: "ip1"
  type: INNER_PRODUCT
  blobs_lr: 1
  blobs_lr: 2
  weight_decay: 1
  weight_decay: 0
  inner_product_param {
    num_output: 150
    weight_filler {
      type: "gaussian"
      std: 0.1
    }
    bias_filler {
      type: "constant"
    }
  }
}
layers {
  bottom: "ip1"
  top: "ip1"
  name: "relu3"
  type: RELU
}
layers {
  bottom: "ip1"
  top: "ip2"
  name: "ip2"
  type: INNER_PRODUCT
  blobs_lr: 1
  blobs_lr: 2
  weight_decay: 1
  weight_decay: 0
  inner_product_param {
    num_output: 10
    weight_filler {
      type: "gaussian"
      std: 0.1
    }
    bias_filler {
      type: "constant"
    }
  }
}
layers {
  bottom: "ip2"
  bottom: "label"
  top: "loss"
  name: "loss"
  type: SOFTMAX_LOSS
}
state {
  phase: TRAIN
}
I1129 23:26:11.760895   685 net.cpp:69] Creating Layer mnist
I1129 23:26:11.760910   685 net.cpp:362] mnist -> data
I1129 23:26:11.760931   685 net.cpp:362] mnist -> label
I1129 23:26:11.760946   685 net.cpp:98] Setting up mnist
I1129 23:26:11.760957   685 hdf5_data_layer.cpp:61] Loading filename from ../../data/mnist/table1/10k_split6_test.txt
I1129 23:26:11.761165   685 hdf5_data_layer.cpp:73] Number of files: 1
I1129 23:26:11.761185   685 hdf5_data_layer.cpp:76] Loading HDF5 file/root/si-convnet/data/mnist/table1/mnist-sc-uniform-10ksplit-set-6.h5
I1129 23:26:11.792964   685 hdf5_data_layer.cpp:86] output data size: 128,1,28,28
I1129 23:26:11.793095   685 net.cpp:105] Top shape: 128 1 28 28 (100352)
I1129 23:26:11.793110   685 net.cpp:105] Top shape: 128 1 1 1 (128)
I1129 23:26:11.793138   685 net.cpp:69] Creating Layer conv1
I1129 23:26:11.793148   685 net.cpp:400] conv1 <- data
I1129 23:26:11.793164   685 net.cpp:362] conv1 -> conv1
I1129 23:26:11.793184   685 net.cpp:98] Setting up conv1
I1129 23:26:11.793215   685 ticonv_layer.cpp:27] TIConvolution layer using 6 transformations conv1 using interpolation: 1
I1129 23:26:11.793228   685 ticonv_layer.cpp:33]  T0 :  sc: 1, rot: 0
I1129 23:26:11.793300   685 ticonv_layer.cpp:33]  T1 :  sc: 0.63, rot: 0
I1129 23:26:11.793316   685 ticonv_layer.cpp:33]  T2 :  sc: 0.7937, rot: 0
I1129 23:26:11.793329   685 ticonv_layer.cpp:33]  T3 :  sc: 1.2599, rot: 0
I1129 23:26:11.793341   685 ticonv_layer.cpp:33]  T4 :  sc: 1.5874, rot: 0
I1129 23:26:11.793354   685 ticonv_layer.cpp:33]  T5 :  sc: 2, rot: 0
I1129 23:26:11.793366   685 ticonv_layer.cpp:37]   Creating Upsampling Layer in conv1
I1129 23:26:11.807054   685 ticonv_layer.cpp:51]   Top shape: 1 28 28
I1129 23:26:11.807080   685 ticonv_layer.cpp:51]   Top shape: 1 17 17
I1129 23:26:11.807090   685 ticonv_layer.cpp:51]   Top shape: 1 22 22
I1129 23:26:11.807098   685 ticonv_layer.cpp:51]   Top shape: 1 35 35
I1129 23:26:11.807106   685 ticonv_layer.cpp:51]   Top shape: 1 44 44
I1129 23:26:11.807114   685 ticonv_layer.cpp:51]   Top shape: 1 56 56
I1129 23:26:11.807122   685 ticonv_layer.cpp:58]   Creating TiedConv Layer in conv1
I1129 23:26:11.807289   685 ticonv_layer.cpp:70]   Top shape: 36 22 22
I1129 23:26:11.807307   685 ticonv_layer.cpp:70]   Top shape: 36 11 11
I1129 23:26:11.807315   685 ticonv_layer.cpp:70]   Top shape: 36 16 16
I1129 23:26:11.807323   685 ticonv_layer.cpp:70]   Top shape: 36 29 29
I1129 23:26:11.807332   685 ticonv_layer.cpp:70]   Top shape: 36 38 38
I1129 23:26:11.807340   685 ticonv_layer.cpp:70]   Top shape: 36 50 50
I1129 23:26:11.807349   685 ticonv_layer.cpp:82]   Creating DownPooling Layer in conv1
I1129 23:26:11.807847   685 net.cpp:105] Top shape: 128 36 22 22 (2230272)
I1129 23:26:11.807889   685 net.cpp:69] Creating Layer relu1
I1129 23:26:11.807904   685 net.cpp:400] relu1 <- conv1
I1129 23:26:11.807917   685 net.cpp:351] relu1 -> conv1 (in-place)
I1129 23:26:11.807930   685 net.cpp:98] Setting up relu1
I1129 23:26:11.807940   685 net.cpp:105] Top shape: 128 36 22 22 (2230272)
I1129 23:26:11.807953   685 net.cpp:69] Creating Layer pool1
I1129 23:26:11.807961   685 net.cpp:400] pool1 <- conv1
I1129 23:26:11.807974   685 net.cpp:362] pool1 -> pool1
I1129 23:26:11.807987   685 net.cpp:98] Setting up pool1
I1129 23:26:11.808001   685 net.cpp:105] Top shape: 128 36 11 11 (557568)
I1129 23:26:11.808017   685 net.cpp:69] Creating Layer conv2
I1129 23:26:11.808027   685 net.cpp:400] conv2 <- pool1
I1129 23:26:11.808039   685 net.cpp:362] conv2 -> conv2
I1129 23:26:11.808055   685 net.cpp:98] Setting up conv2
I1129 23:26:11.808064   685 ticonv_layer.cpp:27] TIConvolution layer using 6 transformations conv2 using interpolation: 1
I1129 23:26:11.808073   685 ticonv_layer.cpp:33]  T0 :  sc: 1, rot: 0
I1129 23:26:11.808091   685 ticonv_layer.cpp:33]  T1 :  sc: 0.63, rot: 0
I1129 23:26:11.808109   685 ticonv_layer.cpp:33]  T2 :  sc: 0.7937, rot: 0
I1129 23:26:11.808122   685 ticonv_layer.cpp:33]  T3 :  sc: 1.2599, rot: 0
I1129 23:26:11.808135   685 ticonv_layer.cpp:33]  T4 :  sc: 1.5874, rot: 0
I1129 23:26:11.808145   685 ticonv_layer.cpp:33]  T5 :  sc: 2, rot: 0
I1129 23:26:11.808157   685 ticonv_layer.cpp:37]   Creating Upsampling Layer in conv2
I1129 23:26:11.808681   685 ticonv_layer.cpp:51]   Top shape: 36 11 11
I1129 23:26:11.808708   685 ticonv_layer.cpp:51]   Top shape: 36 6 6
I1129 23:26:11.808718   685 ticonv_layer.cpp:51]   Top shape: 36 8 8
I1129 23:26:11.808727   685 ticonv_layer.cpp:51]   Top shape: 36 13 13
I1129 23:26:11.808734   685 ticonv_layer.cpp:51]   Top shape: 36 17 17
I1129 23:26:11.808742   685 ticonv_layer.cpp:51]   Top shape: 36 22 22
I1129 23:26:11.808749   685 ticonv_layer.cpp:58]   Creating TiedConv Layer in conv2
I1129 23:26:11.812255   685 ticonv_layer.cpp:70]   Top shape: 64 7 7
I1129 23:26:11.812276   685 ticonv_layer.cpp:70]   Top shape: 64 2 2
I1129 23:26:11.812284   685 ticonv_layer.cpp:70]   Top shape: 64 4 4
I1129 23:26:11.812294   685 ticonv_layer.cpp:70]   Top shape: 64 9 9
I1129 23:26:11.812300   685 ticonv_layer.cpp:70]   Top shape: 64 13 13
I1129 23:26:11.812309   685 ticonv_layer.cpp:70]   Top shape: 64 18 18
I1129 23:26:11.812317   685 ticonv_layer.cpp:82]   Creating DownPooling Layer in conv2
I1129 23:26:11.812613   685 net.cpp:105] Top shape: 128 64 7 7 (401408)
I1129 23:26:11.812642   685 net.cpp:69] Creating Layer relu2
I1129 23:26:11.812654   685 net.cpp:400] relu2 <- conv2
I1129 23:26:11.812665   685 net.cpp:351] relu2 -> conv2 (in-place)
I1129 23:26:11.812677   685 net.cpp:98] Setting up relu2
I1129 23:26:11.812687   685 net.cpp:105] Top shape: 128 64 7 7 (401408)
I1129 23:26:11.812700   685 net.cpp:69] Creating Layer pool2
I1129 23:26:11.812708   685 net.cpp:400] pool2 <- conv2
I1129 23:26:11.812718   685 net.cpp:362] pool2 -> pool2
I1129 23:26:11.812731   685 net.cpp:98] Setting up pool2
I1129 23:26:11.812741   685 net.cpp:105] Top shape: 128 64 3 3 (73728)
I1129 23:26:11.812757   685 net.cpp:69] Creating Layer ip1
I1129 23:26:11.812764   685 net.cpp:400] ip1 <- pool2
I1129 23:26:11.812781   685 net.cpp:362] ip1 -> ip1
I1129 23:26:11.812798   685 net.cpp:98] Setting up ip1
I1129 23:26:11.817981   685 net.cpp:105] Top shape: 128 150 1 1 (19200)
I1129 23:26:11.818018   685 net.cpp:69] Creating Layer relu3
I1129 23:26:11.818032   685 net.cpp:400] relu3 <- ip1
I1129 23:26:11.818044   685 net.cpp:351] relu3 -> ip1 (in-place)
I1129 23:26:11.818061   685 net.cpp:98] Setting up relu3
I1129 23:26:11.818070   685 net.cpp:105] Top shape: 128 150 1 1 (19200)
I1129 23:26:11.818084   685 net.cpp:69] Creating Layer ip2
I1129 23:26:11.818092   685 net.cpp:400] ip2 <- ip1
I1129 23:26:11.818104   685 net.cpp:362] ip2 -> ip2
I1129 23:26:11.818116   685 net.cpp:98] Setting up ip2
I1129 23:26:11.818229   685 net.cpp:105] Top shape: 128 10 1 1 (1280)
I1129 23:26:11.818255   685 net.cpp:69] Creating Layer loss
I1129 23:26:11.818267   685 net.cpp:400] loss <- ip2
I1129 23:26:11.818279   685 net.cpp:400] loss <- label
I1129 23:26:11.818289   685 net.cpp:362] loss -> loss
I1129 23:26:11.818303   685 net.cpp:98] Setting up loss
I1129 23:26:11.818320   685 net.cpp:105] Top shape: 1 1 1 1 (1)
I1129 23:26:11.818329   685 net.cpp:112]     with loss weight 1
I1129 23:26:11.818353   685 net.cpp:175] loss needs backward computation.
I1129 23:26:11.818364   685 net.cpp:175] ip2 needs backward computation.
I1129 23:26:11.818378   685 net.cpp:175] relu3 needs backward computation.
I1129 23:26:11.818387   685 net.cpp:175] ip1 needs backward computation.
I1129 23:26:11.818395   685 net.cpp:175] pool2 needs backward computation.
…
I1129 23:26:11.818907   685 solver.cpp:154] Creating test net (#0) specified by net file: protos/sicnn_train10k_train_test_mnist-sc_split6.prototxt
I1129 23:26:11.818959   685 net.cpp:281] The NetState phase (1) differed from the phase (0) specified by a rule in layer mnist
I1129 23:26:11.819178   685 net.cpp:41] Initializing net from parameters: 
name: "MNIST-sicnn-Table-1-split-6"
layers {
  top: "data"
  top: "label"
  name: "mnist"
  type: HDF5_DATA
  hdf5_data_param {
    source: "../../data/mnist/table1/10k_split6_train.txt"
    batch_size: 100
  }
  include {
    phase: TEST
  }
}
layers {
  bottom: "data"
  top: "conv1"
  name: "conv1"
  type: TICONV
  blobs_lr: 1
  blobs_lr: 2
  weight_decay: 1
  weight_decay: 0
  convolution_param {
    num_output: 36
    kernel_size: 7
    stride: 1
    weight_filler {
      type: "gaussian"
      std: 0.01
    }
    bias_filler {
      type: "constant"
    }
  }
  transformations {
  }
  transformations {
    scale: 0.63
  }
  transformations {
    scale: 0.7937
  }
  transformations {
    scale: 1.2599
  }
  transformations {
    scale: 1.5874
  }
  transformations {
    scale: 2
  }
}
layers {
  bottom: "conv1"
  top: "conv1"
  name: "relu1"
  type: RELU
}
layers {
  bottom: "conv1"
  top: "pool1"
  name: "pool1"
  type: POOLING
  pooling_param {
    pool: MAX
    kernel_size: 2
    stride: 2
  }
}
layers {
  bottom: "pool1"
  top: "conv2"
  name: "conv2"
  type: TICONV
  blobs_lr: 1
  blobs_lr: 2
  weight_decay: 1
  weight_decay: 0
  convolution_param {
    num_output: 64
    kernel_size: 5
    stride: 1
    weight_filler {
      type: "gaussian"
      std: 0.01
    }
    bias_filler {
      type: "constant"
    }
  }
  transformations {
  }
  transformations {
    scale: 0.63
  }
  transformations {
    scale: 0.7937
  }
  transformations {
    scale: 1.2599
  }
  transformations {
    scale: 1.5874
  }
  transformations {
    scale: 2
  }
}
layers {
  bottom: "conv2"
  top: "conv2"
  name: "relu2"
  type: RELU
}
layers {
  bottom: "conv2"
  top: "pool2"
  name: "pool2"
  type: POOLING
  pooling_param {
    pool: MAX
    kernel_size: 3
    stride: 3
  }
}
layers {
  bottom: "pool2"
  top: "ip1"
  name: "ip1"
  type: INNER_PRODUCT
  blobs_lr: 1
  blobs_lr: 2
  weight_decay: 1
  weight_decay: 0
  inner_product_param {
    num_output: 150
    weight_filler {
      type: "gaussian"
      std: 0.1
    }
    bias_filler {
      type: "constant"
    }
  }
}
layers {
  bottom: "ip1"
  top: "ip1"
  name: "relu3"
  type: RELU
}
layers {
  bottom: "ip1"
  top: "ip2"
  name: "ip2"
  type: INNER_PRODUCT
  blobs_lr: 1
  blobs_lr: 2
  weight_decay: 1
  weight_decay: 0
  inner_product_param {
    num_output: 10
    weight_filler {
      type: "gaussian"
      std: 0.1
    }
    bias_filler {
      type: "constant"
    }
  }
}
layers {
  bottom: "ip2"
  bottom: "label"
  top: "accuracy"
  name: "accuracy"
  type: ACCURACY
  include {
    phase: TEST
  }
}
layers {
  bottom: "ip2"
  bottom: "label"
  top: "loss"
  name: "loss"
  type: SOFTMAX_LOSS
}
state {
  phase: TEST
}
I1129 23:26:11.819352   685 net.cpp:69] Creating Layer mnist
I1129 23:26:11.819370   685 net.cpp:362] mnist -> data
I1129 23:26:11.819386   685 net.cpp:362] mnist -> label
I1129 23:26:11.819401   685 net.cpp:98] Setting up mnist
I1129 23:26:11.819409   685 hdf5_data_layer.cpp:61] Loading filename from ../../data/mnist/table1/10k_split6_train.txt
I1129 23:26:11.819528   685 hdf5_data_layer.cpp:73] Number of files: 5
I1129 23:26:11.819546   685 hdf5_data_layer.cpp:76] Loading HDF5 file/root/si-convnet/data/mnist/table1/mnist-sc-uniform-10ksplit-set-1.h5
I1129 23:26:11.849071   685 hdf5_data_layer.cpp:86] output data size: 100,1,28,28
I1129 23:26:11.849133   685 net.cpp:105] Top shape: 100 1 28 28 (78400)
I1129 23:26:11.849146   685 net.cpp:105] Top shape: 100 1 1 1 (100)
I1129 23:26:11.849170   685 net.cpp:69] Creating Layer label_mnist_1_split
I1129 23:26:11.849182   685 net.cpp:400] label_mnist_1_split <- label
I1129 23:26:11.849197   685 net.cpp:362] label_mnist_1_split -> label_mnist_1_split_0
I1129 23:26:11.849225   685 net.cpp:362] label_mnist_1_split -> label_mnist_1_split_1
I1129 23:26:11.849242   685 net.cpp:98] Setting up label_mnist_1_split
I1129 23:26:11.849254   685 net.cpp:105] Top shape: 100 1 1 1 (100)
I1129 23:26:11.849264   685 net.cpp:105] Top shape: 100 1 1 1 (100)
I1129 23:26:11.849282   685 net.cpp:69] Creating Layer conv1
I1129 23:26:11.849292   685 net.cpp:400] conv1 <- data
I1129 23:26:11.849304   685 net.cpp:362] conv1 -> conv1
I1129 23:26:11.849364   685 net.cpp:98] Setting up conv1
I1129 23:26:11.849380   685 ticonv_layer.cpp:27] TIConvolution layer using 6 transformations conv1 using interpolation: 1
I1129 23:26:11.849390   685 ticonv_layer.cpp:33]  T0 :  sc: 1, rot: 0
I1129 23:26:11.849428   685 ticonv_layer.cpp:33]  T1 :  sc: 0.63, rot: 0
I1129 23:26:11.849443   685 ticonv_layer.cpp:33]  T2 :  sc: 0.7937, rot: 0
I1129 23:26:11.849457   685 ticonv_layer.cpp:33]  T3 :  sc: 1.2599, rot: 0
I1129 23:26:11.849468   685 ticonv_layer.cpp:33]  T4 :  sc: 1.5874, rot: 0
I1129 23:26:11.849480   685 ticonv_layer.cpp:33]  T5 :  sc: 2, rot: 0
I1129 23:26:11.849493   685 ticonv_layer.cpp:37]   Creating Upsampling Layer in conv1
I1129 23:26:11.850373   685 ticonv_layer.cpp:51]   Top shape: 1 28 28
I1129 23:26:11.850394   685 ticonv_layer.cpp:51]   Top shape: 1 17 17
I1129 23:26:11.850404   685 ticonv_layer.cpp:51]   Top shape: 1 22 22
I1129 23:26:11.850411   685 ticonv_layer.cpp:51]   Top shape: 1 35 35
I1129 23:26:11.850419   685 ticonv_layer.cpp:51]   Top shape: 1 44 44
I1129 23:26:11.850427   685 ticonv_layer.cpp:51]   Top shape: 1 56 56
I1129 23:26:11.850435   685 ticonv_layer.cpp:58]   Creating TiedConv Layer in conv1
I1129 23:26:11.850584   685 ticonv_layer.cpp:70]   Top shape: 36 22 22
I1129 23:26:11.850598   685 ticonv_layer.cpp:70]   Top shape: 36 11 11
I1129 23:26:11.850607   685 ticonv_layer.cpp:70]   Top shape: 36 16 16
I1129 23:26:11.850615   685 ticonv_layer.cpp:70]   Top shape: 36 29 29
I1129 23:26:11.850623   685 ticonv_layer.cpp:70]   Top shape: 36 38 38
I1129 23:26:11.850631   685 ticonv_layer.cpp:70]   Top shape: 36 50 50
I1129 23:26:11.850641   685 ticonv_layer.cpp:82]   Creating DownPooling Layer in conv1
I1129 23:26:11.851104   685 net.cpp:105] Top shape: 100 36 22 22 (1742400)
I1129 23:26:11.851136   685 net.cpp:69] Creating Layer relu1
I1129 23:26:11.851150   685 net.cpp:400] relu1 <- conv1
I1129 23:26:11.851163   685 net.cpp:351] relu1 -> conv1 (in-place)
I1129 23:26:11.851176   685 net.cpp:98] Setting up relu1
I1129 23:26:11.851186   685 net.cpp:105] Top shape: 100 36 22 22 (1742400)
I1129 23:26:11.851200   685 net.cpp:69] Creating Layer pool1
I1129 23:26:11.851209   685 net.cpp:400] pool1 <- conv1
I1129 23:26:11.851220   685 net.cpp:362] pool1 -> pool1
I1129 23:26:11.851233   685 net.cpp:98] Setting up pool1
I1129 23:26:11.851246   685 net.cpp:105] Top shape: 100 36 11 11 (435600)
I1129 23:26:11.851261   685 net.cpp:69] Creating Layer conv2
I1129 23:26:11.851270   685 net.cpp:400] conv2 <- pool1
I1129 23:26:11.851282   685 net.cpp:362] conv2 -> conv2
I1129 23:26:11.851296   685 net.cpp:98] Setting up conv2
I1129 23:26:11.851305   685 ticonv_layer.cpp:27] TIConvolution layer using 6 transformations conv2 using interpolation: 1
I1129 23:26:11.851315   685 ticonv_layer.cpp:33]  T0 :  sc: 1, rot: 0
I1129 23:26:11.851331   685 ticonv_layer.cpp:33]  T1 :  sc: 0.63, rot: 0
I1129 23:26:11.851344   685 ticonv_layer.cpp:33]  T2 :  sc: 0.7937, rot: 0
I1129 23:26:11.851356   685 ticonv_layer.cpp:33]  T3 :  sc: 1.2599, rot: 0
I1129 23:26:11.851368   685 ticonv_layer.cpp:33]  T4 :  sc: 1.5874, rot: 0
I1129 23:26:11.851380   685 ticonv_layer.cpp:33]  T5 :  sc: 2, rot: 0
I1129 23:26:11.851392   685 ticonv_layer.cpp:37]   Creating Upsampling Layer in conv2
I1129 23:26:11.851723   685 ticonv_layer.cpp:51]   Top shape: 36 11 11
I1129 23:26:11.851740   685 ticonv_layer.cpp:51]   Top shape: 36 6 6
I1129 23:26:11.851749   685 ticonv_layer.cpp:51]   Top shape: 36 8 8
I1129 23:26:11.851758   685 ticonv_layer.cpp:51]   Top shape: 36 13 13
I1129 23:26:11.851766   685 ticonv_layer.cpp:51]   Top shape: 36 17 17
I1129 23:26:11.851774   685 ticonv_layer.cpp:51]   Top shape: 36 22 22
I1129 23:26:11.851783   685 ticonv_layer.cpp:58]   Creating TiedConv Layer in conv2
I1129 23:26:11.855103   685 ticonv_layer.cpp:70]   Top shape: 64 7 7
I1129 23:26:11.855123   685 ticonv_layer.cpp:70]   Top shape: 64 2 2
I1129 23:26:11.855132   685 ticonv_layer.cpp:70]   Top shape: 64 4 4
I1129 23:26:11.855140   685 ticonv_layer.cpp:70]   Top shape: 64 9 9
I1129 23:26:11.855183   685 ticonv_layer.cpp:70]   Top shape: 64 13 13
I1129 23:26:11.855193   685 ticonv_layer.cpp:70]   Top shape: 64 18 18
I1129 23:26:11.855202   685 ticonv_layer.cpp:82]   Creating DownPooling Layer in conv2
I1129 23:26:11.855463   685 net.cpp:105] Top shape: 100 64 7 7 (313600)
I1129 23:26:11.855490   685 net.cpp:69] Creating Layer relu2
I1129 23:26:11.855500   685 net.cpp:400] relu2 <- conv2
I1129 23:26:11.855512   685 net.cpp:351] relu2 -> conv2 (in-place)
I1129 23:26:11.855525   685 net.cpp:98] Setting up relu2
I1129 23:26:11.855535   685 net.cpp:105] Top shape: 100 64 7 7 (313600)
I1129 23:26:11.855546   685 net.cpp:69] Creating Layer pool2
I1129 23:26:11.855554   685 net.cpp:400] pool2 <- conv2
I1129 23:26:11.855566   685 net.cpp:362] pool2 -> pool2
I1129 23:26:11.855578   685 net.cpp:98] Setting up pool2
I1129 23:26:11.855589   685 net.cpp:105] Top shape: 100 64 3 3 (57600)
I1129 23:26:11.855604   685 net.cpp:69] Creating Layer ip1
I1129 23:26:11.855618   685 net.cpp:400] ip1 <- pool2
I1129 23:26:11.855630   685 net.cpp:362] ip1 -> ip1
I1129 23:26:11.855645   685 net.cpp:98] Setting up ip1
I1129 23:26:11.860900   685 net.cpp:105] Top shape: 100 150 1 1 (15000)
I1129 23:26:11.860930   685 net.cpp:69] Creating Layer relu3
I1129 23:26:11.860945   685 net.cpp:400] relu3 <- ip1
I1129 23:26:11.860957   685 net.cpp:351] relu3 -> ip1 (in-place)
I1129 23:26:11.860970   685 net.cpp:98] Setting up relu3
I1129 23:26:11.860978   685 net.cpp:105] Top shape: 100 150 1 1 (15000)
I1129 23:26:11.860991   685 net.cpp:69] Creating Layer ip2
I1129 23:26:11.861001   685 net.cpp:400] ip2 <- ip1
I1129 23:26:11.861011   685 net.cpp:362] ip2 -> ip2
I1129 23:26:11.861024   685 net.cpp:98] Setting up ip2
I1129 23:26:11.861132   685 net.cpp:105] Top shape: 100 10 1 1 (1000)
I1129 23:26:11.861153   685 net.cpp:69] Creating Layer ip2_ip2_0_split
I1129 23:26:11.861163   685 net.cpp:400] ip2_ip2_0_split <- ip2
I1129 23:26:11.861176   685 net.cpp:362] ip2_ip2_0_split -> ip2_ip2_0_split_0
I1129 23:26:11.861191   685 net.cpp:362] ip2_ip2_0_split -> ip2_ip2_0_split_1
I1129 23:26:11.861203   685 net.cpp:98] Setting up ip2_ip2_0_split
I1129 23:26:11.861213   685 net.cpp:105] Top shape: 100 10 1 1 (1000)
I1129 23:26:11.861223   685 net.cpp:105] Top shape: 100 10 1 1 (1000)
I1129 23:26:11.861236   685 net.cpp:69] Creating Layer accuracy
I1129 23:26:11.861244   685 net.cpp:400] accuracy <- ip2_ip2_0_split_0
I1129 23:26:11.861255   685 net.cpp:400] accuracy <- label_mnist_1_split_0
I1129 23:26:11.861268   685 net.cpp:362] accuracy -> accuracy
I1129 23:26:11.861280   685 net.cpp:98] Setting up accuracy
I1129 23:26:11.861290   685 net.cpp:105] Top shape: 1 1 1 1 (1)
I1129 23:26:11.861304   685 net.cpp:69] Creating Layer loss
I1129 23:26:11.861312   685 net.cpp:400] loss <- ip2_ip2_0_split_1
I1129 23:26:11.861322   685 net.cpp:400] loss <- label_mnist_1_split_1
I1129 23:26:11.861333   685 net.cpp:362] loss -> loss
I1129 23:26:11.861346   685 net.cpp:98] Setting up loss
I1129 23:26:11.861361   685 net.cpp:105] Top shape: 1 1 1 1 (1)
I1129 23:26:11.861369   685 net.cpp:112]     with loss weight 1
I1129 23:26:11.861390   685 net.cpp:175] loss needs backward computation.
I1129 23:26:11.861402   685 net.cpp:177] accuracy does not need backward computation.
I1129 23:26:11.861409   685 net.cpp:175] ip2_ip2_0_split needs backward computation.
I1129 23:26:11.861418   685 net.cpp:175] ip2 needs backward computation.
I1129 23:26:11.861428   685 net.cpp:175] relu3 needs backward computation.
…
