…
I1129 18:31:58.527982   715 solver.cpp:71] Creating training net from net file: protos/sicnn_train10k_train_test_mnist-sc_split3.prototxt
I1129 18:31:58.562531   715 net.cpp:281] The NetState phase (0) differed from the phase (1) specified by a rule in layer mnist
I1129 18:31:58.562561   715 net.cpp:281] The NetState phase (0) differed from the phase (1) specified by a rule in layer accuracy
I1129 18:31:58.562789   715 net.cpp:41] Initializing net from parameters: 
name: "MNIST-sicnn-Table-1-split-3"
layers {
  top: "data"
  top: "label"
  name: "mnist"
  type: HDF5_DATA
  hdf5_data_param {
    source: "../../data/mnist/table1/10k_split3_test.txt"
    batch_size: 128
  }
  include {
    phase: TRAIN
  }
}
layers {
  bottom: "data"
  top: "conv1"
  name: "conv1"
  type: TICONV
  blobs_lr: 1
  blobs_lr: 2
  weight_decay: 1
  weight_decay: 0
  convolution_param {
    num_output: 36
    kernel_size: 7
    stride: 1
    weight_filler {
      type: "gaussian"
      std: 0.01
    }
    bias_filler {
      type: "constant"
    }
  }
  transformations {
  }
  transformations {
    scale: 0.63
  }
  transformations {
    scale: 0.7937
  }
  transformations {
    scale: 1.2599
  }
  transformations {
    scale: 1.5874
  }
  transformations {
    scale: 2
  }
}
layers {
  bottom: "conv1"
  top: "conv1"
  name: "relu1"
  type: RELU
}
layers {
  bottom: "conv1"
  top: "pool1"
  name: "pool1"
  type: POOLING
  pooling_param {
    pool: MAX
    kernel_size: 2
    stride: 2
  }
}
layers {
  bottom: "pool1"
  top: "conv2"
  name: "conv2"
  type: TICONV
  blobs_lr: 1
  blobs_lr: 2
  weight_decay: 1
  weight_decay: 0
  convolution_param {
    num_output: 64
    kernel_size: 5
    stride: 1
    weight_filler {
      type: "gaussian"
      std: 0.01
    }
    bias_filler {
      type: "constant"
    }
  }
  transformations {
  }
  transformations {
    scale: 0.63
  }
  transformations {
    scale: 0.7937
  }
  transformations {
    scale: 1.2599
  }
  transformations {
    scale: 1.5874
  }
  transformations {
    scale: 2
  }
}
layers {
  bottom: "conv2"
  top: "conv2"
  name: "relu2"
  type: RELU
}
layers {
  bottom: "conv2"
  top: "pool2"
  name: "pool2"
  type: POOLING
  pooling_param {
    pool: MAX
    kernel_size: 3
    stride: 3
  }
}
layers {
  bottom: "pool2"
  top: "ip1"
  name: "ip1"
  type: INNER_PRODUCT
  blobs_lr: 1
  blobs_lr: 2
  weight_decay: 1
  weight_decay: 0
  inner_product_param {
    num_output: 150
    weight_filler {
      type: "gaussian"
      std: 0.1
    }
    bias_filler {
      type: "constant"
    }
  }
}
layers {
  bottom: "ip1"
  top: "ip1"
  name: "relu3"
  type: RELU
}
layers {
  bottom: "ip1"
  top: "ip2"
  name: "ip2"
  type: INNER_PRODUCT
  blobs_lr: 1
  blobs_lr: 2
  weight_decay: 1
  weight_decay: 0
  inner_product_param {
    num_output: 10
    weight_filler {
      type: "gaussian"
      std: 0.1
    }
    bias_filler {
      type: "constant"
    }
  }
}
layers {
  bottom: "ip2"
  bottom: "label"
  top: "loss"
  name: "loss"
  type: SOFTMAX_LOSS
}
state {
  phase: TRAIN
}
I1129 18:31:58.563017   715 net.cpp:69] Creating Layer mnist
I1129 18:31:58.563048   715 net.cpp:362] mnist -> data
I1129 18:31:58.563077   715 net.cpp:362] mnist -> label
I1129 18:31:58.563102   715 net.cpp:98] Setting up mnist
I1129 18:31:58.563120   715 hdf5_data_layer.cpp:61] Loading filename from ../../data/mnist/table1/10k_split3_test.txt
I1129 18:31:58.573092   715 hdf5_data_layer.cpp:73] Number of files: 1
I1129 18:31:58.573112   715 hdf5_data_layer.cpp:76] Loading HDF5 file/root/si-convnet/data/mnist/table1/mnist-sc-uniform-10ksplit-set-3.h5
I1129 18:31:58.833070   715 hdf5_data_layer.cpp:86] output data size: 128,1,28,28
I1129 18:31:58.833166   715 net.cpp:105] Top shape: 128 1 28 28 (100352)
I1129 18:31:58.833178   715 net.cpp:105] Top shape: 128 1 1 1 (128)
I1129 18:31:58.833199   715 net.cpp:69] Creating Layer conv1
I1129 18:31:58.833206   715 net.cpp:400] conv1 <- data
I1129 18:31:58.833220   715 net.cpp:362] conv1 -> conv1
I1129 18:31:58.833236   715 net.cpp:98] Setting up conv1
I1129 18:31:58.854954   715 ticonv_layer.cpp:27] TIConvolution layer using 6 transformations conv1 using interpolation: 1
I1129 18:31:58.854976   715 ticonv_layer.cpp:33]  T0 :  sc: 1, rot: 0
I1129 18:31:58.855043   715 ticonv_layer.cpp:33]  T1 :  sc: 0.63, rot: 0
I1129 18:31:58.855069   715 ticonv_layer.cpp:33]  T2 :  sc: 0.7937, rot: 0
I1129 18:31:58.855093   715 ticonv_layer.cpp:33]  T3 :  sc: 1.2599, rot: 0
I1129 18:31:58.855118   715 ticonv_layer.cpp:33]  T4 :  sc: 1.5874, rot: 0
I1129 18:31:58.855139   715 ticonv_layer.cpp:33]  T5 :  sc: 2, rot: 0
I1129 18:31:58.855159   715 ticonv_layer.cpp:37]   Creating Upsampling Layer in conv1
I1129 18:31:58.948087   715 ticonv_layer.cpp:51]   Top shape: 1 28 28
I1129 18:31:58.948107   715 ticonv_layer.cpp:51]   Top shape: 1 17 17
I1129 18:31:58.948113   715 ticonv_layer.cpp:51]   Top shape: 1 22 22
I1129 18:31:58.948119   715 ticonv_layer.cpp:51]   Top shape: 1 35 35
I1129 18:31:58.948128   715 ticonv_layer.cpp:51]   Top shape: 1 44 44
I1129 18:31:58.948137   715 ticonv_layer.cpp:51]   Top shape: 1 56 56
I1129 18:31:58.948145   715 ticonv_layer.cpp:58]   Creating TiedConv Layer in conv1
I1129 18:31:58.948310   715 ticonv_layer.cpp:70]   Top shape: 36 22 22
I1129 18:31:58.948367   715 ticonv_layer.cpp:70]   Top shape: 36 11 11
I1129 18:31:58.948379   715 ticonv_layer.cpp:70]   Top shape: 36 16 16
I1129 18:31:58.948402   715 ticonv_layer.cpp:70]   Top shape: 36 29 29
I1129 18:31:58.948417   715 ticonv_layer.cpp:70]   Top shape: 36 38 38
I1129 18:31:58.948428   715 ticonv_layer.cpp:70]   Top shape: 36 50 50
I1129 18:31:58.948441   715 ticonv_layer.cpp:82]   Creating DownPooling Layer in conv1
I1129 18:31:58.949144   715 net.cpp:105] Top shape: 128 36 22 22 (2230272)
I1129 18:31:58.949192   715 net.cpp:69] Creating Layer relu1
I1129 18:31:58.949211   715 net.cpp:400] relu1 <- conv1
I1129 18:31:58.949231   715 net.cpp:351] relu1 -> conv1 (in-place)
I1129 18:31:58.949252   715 net.cpp:98] Setting up relu1
I1129 18:31:58.949268   715 net.cpp:105] Top shape: 128 36 22 22 (2230272)
I1129 18:31:58.949290   715 net.cpp:69] Creating Layer pool1
I1129 18:31:58.949318   715 net.cpp:400] pool1 <- conv1
I1129 18:31:58.949334   715 net.cpp:362] pool1 -> pool1
I1129 18:31:58.949354   715 net.cpp:98] Setting up pool1
I1129 18:31:58.949723   715 net.cpp:105] Top shape: 128 36 11 11 (557568)
I1129 18:31:58.949760   715 net.cpp:69] Creating Layer conv2
I1129 18:31:58.949779   715 net.cpp:400] conv2 <- pool1
I1129 18:31:58.949802   715 net.cpp:362] conv2 -> conv2
I1129 18:31:58.949827   715 net.cpp:98] Setting up conv2
I1129 18:31:58.949846   715 ticonv_layer.cpp:27] TIConvolution layer using 6 transformations conv2 using interpolation: 1
I1129 18:31:58.949862   715 ticonv_layer.cpp:33]  T0 :  sc: 1, rot: 0
I1129 18:31:58.949889   715 ticonv_layer.cpp:33]  T1 :  sc: 0.63, rot: 0
I1129 18:31:58.949913   715 ticonv_layer.cpp:33]  T2 :  sc: 0.7937, rot: 0
I1129 18:31:58.949936   715 ticonv_layer.cpp:33]  T3 :  sc: 1.2599, rot: 0
I1129 18:31:58.949959   715 ticonv_layer.cpp:33]  T4 :  sc: 1.5874, rot: 0
I1129 18:31:58.949982   715 ticonv_layer.cpp:33]  T5 :  sc: 2, rot: 0
I1129 18:31:58.950004   715 ticonv_layer.cpp:37]   Creating Upsampling Layer in conv2
I1129 18:31:58.950546   715 ticonv_layer.cpp:51]   Top shape: 36 11 11
I1129 18:31:58.950572   715 ticonv_layer.cpp:51]   Top shape: 36 6 6
I1129 18:31:58.950582   715 ticonv_layer.cpp:51]   Top shape: 36 8 8
I1129 18:31:58.950592   715 ticonv_layer.cpp:51]   Top shape: 36 13 13
I1129 18:31:58.950603   715 ticonv_layer.cpp:51]   Top shape: 36 17 17
I1129 18:31:58.950618   715 ticonv_layer.cpp:51]   Top shape: 36 22 22
I1129 18:31:58.950628   715 ticonv_layer.cpp:58]   Creating TiedConv Layer in conv2
I1129 18:31:58.953274   715 ticonv_layer.cpp:70]   Top shape: 64 7 7
I1129 18:31:58.953292   715 ticonv_layer.cpp:70]   Top shape: 64 2 2
I1129 18:31:58.953299   715 ticonv_layer.cpp:70]   Top shape: 64 4 4
I1129 18:31:58.953305   715 ticonv_layer.cpp:70]   Top shape: 64 9 9
I1129 18:31:58.953313   715 ticonv_layer.cpp:70]   Top shape: 64 13 13
I1129 18:31:58.953322   715 ticonv_layer.cpp:70]   Top shape: 64 18 18
I1129 18:31:58.953331   715 ticonv_layer.cpp:82]   Creating DownPooling Layer in conv2
I1129 18:31:58.953742   715 net.cpp:105] Top shape: 128 64 7 7 (401408)
I1129 18:31:58.953780   715 net.cpp:69] Creating Layer relu2
I1129 18:31:58.953797   715 net.cpp:400] relu2 <- conv2
I1129 18:31:58.953814   715 net.cpp:351] relu2 -> conv2 (in-place)
I1129 18:31:58.953835   715 net.cpp:98] Setting up relu2
I1129 18:31:58.953851   715 net.cpp:105] Top shape: 128 64 7 7 (401408)
I1129 18:31:58.953871   715 net.cpp:69] Creating Layer pool2
I1129 18:31:58.953886   715 net.cpp:400] pool2 <- conv2
I1129 18:31:58.953900   715 net.cpp:362] pool2 -> pool2
I1129 18:31:58.953943   715 net.cpp:98] Setting up pool2
I1129 18:31:58.953963   715 net.cpp:105] Top shape: 128 64 3 3 (73728)
I1129 18:31:58.953984   715 net.cpp:69] Creating Layer ip1
I1129 18:31:58.954012   715 net.cpp:400] ip1 <- pool2
I1129 18:31:58.954033   715 net.cpp:362] ip1 -> ip1
I1129 18:31:58.954067   715 net.cpp:98] Setting up ip1
I1129 18:31:58.957741   715 net.cpp:105] Top shape: 128 150 1 1 (19200)
I1129 18:31:58.957772   715 net.cpp:69] Creating Layer relu3
I1129 18:31:58.957785   715 net.cpp:400] relu3 <- ip1
I1129 18:31:58.957799   715 net.cpp:351] relu3 -> ip1 (in-place)
I1129 18:31:58.957818   715 net.cpp:98] Setting up relu3
I1129 18:31:58.957832   715 net.cpp:105] Top shape: 128 150 1 1 (19200)
I1129 18:31:58.957851   715 net.cpp:69] Creating Layer ip2
I1129 18:31:58.957866   715 net.cpp:400] ip2 <- ip1
I1129 18:31:58.957888   715 net.cpp:362] ip2 -> ip2
I1129 18:31:58.957911   715 net.cpp:98] Setting up ip2
I1129 18:31:58.958068   715 net.cpp:105] Top shape: 128 10 1 1 (1280)
I1129 18:31:58.958106   715 net.cpp:69] Creating Layer loss
I1129 18:31:58.958123   715 net.cpp:400] loss <- ip2
I1129 18:31:58.958137   715 net.cpp:400] loss <- label
I1129 18:31:58.958163   715 net.cpp:362] loss -> loss
I1129 18:31:58.958189   715 net.cpp:98] Setting up loss
I1129 18:31:58.958222   715 net.cpp:105] Top shape: 1 1 1 1 (1)
I1129 18:31:58.958240   715 net.cpp:112]     with loss weight 1
I1129 18:31:58.958264   715 net.cpp:175] loss needs backward computation.
I1129 18:31:58.958282   715 net.cpp:175] ip2 needs backward computation.
I1129 18:31:58.958297   715 net.cpp:175] relu3 needs backward computation.
I1129 18:31:58.958307   715 net.cpp:175] ip1 needs backward computation.
I1129 18:31:58.958331   715 net.cpp:175] pool2 needs backward computation.
…
I1129 18:31:58.959069   715 solver.cpp:154] Creating test net (#0) specified by net file: protos/sicnn_train10k_train_test_mnist-sc_split3.prototxt
I1129 18:31:58.959131   715 net.cpp:281] The NetState phase (1) differed from the phase (0) specified by a rule in layer mnist
I1129 18:31:58.959441   715 net.cpp:41] Initializing net from parameters: 
name: "MNIST-sicnn-Table-1-split-3"
layers {
  top: "data"
  top: "label"
  name: "mnist"
  type: HDF5_DATA
  hdf5_data_param {
    source: "../../data/mnist/table1/10k_split3_train.txt"
    batch_size: 100
  }
  include {
    phase: TEST
  }
}
layers {
  bottom: "data"
  top: "conv1"
  name: "conv1"
  type: TICONV
  blobs_lr: 1
  blobs_lr: 2
  weight_decay: 1
  weight_decay: 0
  convolution_param {
    num_output: 36
    kernel_size: 7
    stride: 1
    weight_filler {
      type: "gaussian"
      std: 0.01
    }
    bias_filler {
      type: "constant"
    }
  }
  transformations {
  }
  transformations {
    scale: 0.63
  }
  transformations {
    scale: 0.7937
  }
  transformations {
    scale: 1.2599
  }
  transformations {
    scale: 1.5874
  }
  transformations {
    scale: 2
  }
}
layers {
  bottom: "conv1"
  top: "conv1"
  name: "relu1"
  type: RELU
}
layers {
  bottom: "conv1"
  top: "pool1"
  name: "pool1"
  type: POOLING
  pooling_param {
    pool: MAX
    kernel_size: 2
    stride: 2
  }
}
layers {
  bottom: "pool1"
  top: "conv2"
  name: "conv2"
  type: TICONV
  blobs_lr: 1
  blobs_lr: 2
  weight_decay: 1
  weight_decay: 0
  convolution_param {
    num_output: 64
    kernel_size: 5
    stride: 1
    weight_filler {
      type: "gaussian"
      std: 0.01
    }
    bias_filler {
      type: "constant"
    }
  }
  transformations {
  }
  transformations {
    scale: 0.63
  }
  transformations {
    scale: 0.7937
  }
  transformations {
    scale: 1.2599
  }
  transformations {
    scale: 1.5874
  }
  transformations {
    scale: 2
  }
}
layers {
  bottom: "conv2"
  top: "conv2"
  name: "relu2"
  type: RELU
}
layers {
  bottom: "conv2"
  top: "pool2"
  name: "pool2"
  type: POOLING
  pooling_param {
    pool: MAX
    kernel_size: 3
    stride: 3
  }
}
layers {
  bottom: "pool2"
  top: "ip1"
  name: "ip1"
  type: INNER_PRODUCT
  blobs_lr: 1
  blobs_lr: 2
  weight_decay: 1
  weight_decay: 0
  inner_product_param {
    num_output: 150
    weight_filler {
      type: "gaussian"
      std: 0.1
    }
    bias_filler {
      type: "constant"
    }
  }
}
layers {
  bottom: "ip1"
  top: "ip1"
  name: "relu3"
  type: RELU
}
layers {
  bottom: "ip1"
  top: "ip2"
  name: "ip2"
  type: INNER_PRODUCT
  blobs_lr: 1
  blobs_lr: 2
  weight_decay: 1
  weight_decay: 0
  inner_product_param {
    num_output: 10
    weight_filler {
      type: "gaussian"
      std: 0.1
    }
    bias_filler {
      type: "constant"
    }
  }
}
layers {
  bottom: "ip2"
  bottom: "label"
  top: "accuracy"
  name: "accuracy"
  type: ACCURACY
  include {
    phase: TEST
  }
}
layers {
  bottom: "ip2"
  bottom: "label"
  top: "loss"
  name: "loss"
  type: SOFTMAX_LOSS
}
state {
  phase: TEST
}
I1129 18:31:58.959650   715 net.cpp:69] Creating Layer mnist
I1129 18:31:58.959671   715 net.cpp:362] mnist -> data
I1129 18:31:58.959692   715 net.cpp:362] mnist -> label
I1129 18:31:58.959717   715 net.cpp:98] Setting up mnist
I1129 18:31:58.959733   715 hdf5_data_layer.cpp:61] Loading filename from ../../data/mnist/table1/10k_split3_train.txt
I1129 18:31:58.973042   715 hdf5_data_layer.cpp:73] Number of files: 5
I1129 18:31:58.973060   715 hdf5_data_layer.cpp:76] Loading HDF5 file/root/si-convnet/data/mnist/table1/mnist-sc-uniform-10ksplit-set-1.h5
I1129 18:31:59.192883   715 hdf5_data_layer.cpp:86] output data size: 100,1,28,28
I1129 18:31:59.192926   715 net.cpp:105] Top shape: 100 1 28 28 (78400)
I1129 18:31:59.192950   715 net.cpp:105] Top shape: 100 1 1 1 (100)
I1129 18:31:59.192968   715 net.cpp:69] Creating Layer label_mnist_1_split
I1129 18:31:59.192976   715 net.cpp:400] label_mnist_1_split <- label
I1129 18:31:59.192986   715 net.cpp:362] label_mnist_1_split -> label_mnist_1_split_0
I1129 18:31:59.193017   715 net.cpp:362] label_mnist_1_split -> label_mnist_1_split_1
I1129 18:31:59.193027   715 net.cpp:98] Setting up label_mnist_1_split
I1129 18:31:59.193037   715 net.cpp:105] Top shape: 100 1 1 1 (100)
I1129 18:31:59.193049   715 net.cpp:105] Top shape: 100 1 1 1 (100)
I1129 18:31:59.193066   715 net.cpp:69] Creating Layer conv1
I1129 18:31:59.193080   715 net.cpp:400] conv1 <- data
I1129 18:31:59.193095   715 net.cpp:362] conv1 -> conv1
I1129 18:31:59.193171   715 net.cpp:98] Setting up conv1
I1129 18:31:59.193186   715 ticonv_layer.cpp:27] TIConvolution layer using 6 transformations conv1 using interpolation: 1
I1129 18:31:59.193197   715 ticonv_layer.cpp:33]  T0 :  sc: 1, rot: 0
I1129 18:31:59.193234   715 ticonv_layer.cpp:33]  T1 :  sc: 0.63, rot: 0
I1129 18:31:59.193255   715 ticonv_layer.cpp:33]  T2 :  sc: 0.7937, rot: 0
I1129 18:31:59.193272   715 ticonv_layer.cpp:33]  T3 :  sc: 1.2599, rot: 0
I1129 18:31:59.193289   715 ticonv_layer.cpp:33]  T4 :  sc: 1.5874, rot: 0
I1129 18:31:59.193306   715 ticonv_layer.cpp:33]  T5 :  sc: 2, rot: 0
I1129 18:31:59.193325   715 ticonv_layer.cpp:37]   Creating Upsampling Layer in conv1
I1129 18:31:59.194449   715 ticonv_layer.cpp:51]   Top shape: 1 28 28
I1129 18:31:59.194474   715 ticonv_layer.cpp:51]   Top shape: 1 17 17
I1129 18:31:59.194486   715 ticonv_layer.cpp:51]   Top shape: 1 22 22
I1129 18:31:59.194497   715 ticonv_layer.cpp:51]   Top shape: 1 35 35
I1129 18:31:59.194509   715 ticonv_layer.cpp:51]   Top shape: 1 44 44
I1129 18:31:59.194523   715 ticonv_layer.cpp:51]   Top shape: 1 56 56
I1129 18:31:59.194535   715 ticonv_layer.cpp:58]   Creating TiedConv Layer in conv1
I1129 18:31:59.194717   715 ticonv_layer.cpp:70]   Top shape: 36 22 22
I1129 18:31:59.194739   715 ticonv_layer.cpp:70]   Top shape: 36 11 11
I1129 18:31:59.194754   715 ticonv_layer.cpp:70]   Top shape: 36 16 16
I1129 18:31:59.194779   715 ticonv_layer.cpp:70]   Top shape: 36 29 29
I1129 18:31:59.194794   715 ticonv_layer.cpp:70]   Top shape: 36 38 38
I1129 18:31:59.194805   715 ticonv_layer.cpp:70]   Top shape: 36 50 50
I1129 18:31:59.194821   715 ticonv_layer.cpp:82]   Creating DownPooling Layer in conv1
I1129 18:31:59.195502   715 net.cpp:105] Top shape: 100 36 22 22 (1742400)
I1129 18:31:59.195541   715 net.cpp:69] Creating Layer relu1
I1129 18:31:59.195560   715 net.cpp:400] relu1 <- conv1
I1129 18:31:59.195581   715 net.cpp:351] relu1 -> conv1 (in-place)
I1129 18:31:59.195602   715 net.cpp:98] Setting up relu1
I1129 18:31:59.195618   715 net.cpp:105] Top shape: 100 36 22 22 (1742400)
I1129 18:31:59.195641   715 net.cpp:69] Creating Layer pool1
I1129 18:31:59.195657   715 net.cpp:400] pool1 <- conv1
I1129 18:31:59.195673   715 net.cpp:362] pool1 -> pool1
I1129 18:31:59.195694   715 net.cpp:98] Setting up pool1
I1129 18:31:59.195729   715 net.cpp:105] Top shape: 100 36 11 11 (435600)
I1129 18:31:59.195751   715 net.cpp:69] Creating Layer conv2
I1129 18:31:59.195767   715 net.cpp:400] conv2 <- pool1
I1129 18:31:59.195798   715 net.cpp:362] conv2 -> conv2
I1129 18:31:59.195822   715 net.cpp:98] Setting up conv2
I1129 18:31:59.195838   715 ticonv_layer.cpp:27] TIConvolution layer using 6 transformations conv2 using interpolation: 1
I1129 18:31:59.195855   715 ticonv_layer.cpp:33]  T0 :  sc: 1, rot: 0
I1129 18:31:59.195881   715 ticonv_layer.cpp:33]  T1 :  sc: 0.63, rot: 0
I1129 18:31:59.195905   715 ticonv_layer.cpp:33]  T2 :  sc: 0.7937, rot: 0
I1129 18:31:59.195928   715 ticonv_layer.cpp:33]  T3 :  sc: 1.2599, rot: 0
I1129 18:31:59.195951   715 ticonv_layer.cpp:33]  T4 :  sc: 1.5874, rot: 0
I1129 18:31:59.195973   715 ticonv_layer.cpp:33]  T5 :  sc: 2, rot: 0
I1129 18:31:59.195996   715 ticonv_layer.cpp:37]   Creating Upsampling Layer in conv2
I1129 18:31:59.196513   715 ticonv_layer.cpp:51]   Top shape: 36 11 11
I1129 18:31:59.196537   715 ticonv_layer.cpp:51]   Top shape: 36 6 6
I1129 18:31:59.196548   715 ticonv_layer.cpp:51]   Top shape: 36 8 8
I1129 18:31:59.196558   715 ticonv_layer.cpp:51]   Top shape: 36 13 13
I1129 18:31:59.196575   715 ticonv_layer.cpp:51]   Top shape: 36 17 17
I1129 18:31:59.196586   715 ticonv_layer.cpp:51]   Top shape: 36 22 22
I1129 18:31:59.196601   715 ticonv_layer.cpp:58]   Creating TiedConv Layer in conv2
I1129 18:31:59.199076   715 ticonv_layer.cpp:70]   Top shape: 64 7 7
I1129 18:31:59.199095   715 ticonv_layer.cpp:70]   Top shape: 64 2 2
I1129 18:31:59.199100   715 ticonv_layer.cpp:70]   Top shape: 64 4 4
I1129 18:31:59.199107   715 ticonv_layer.cpp:70]   Top shape: 64 9 9
I1129 18:31:59.199151   715 ticonv_layer.cpp:70]   Top shape: 64 13 13
I1129 18:31:59.199167   715 ticonv_layer.cpp:70]   Top shape: 64 18 18
I1129 18:31:59.199177   715 ticonv_layer.cpp:82]   Creating DownPooling Layer in conv2
I1129 18:31:59.199599   715 net.cpp:105] Top shape: 100 64 7 7 (313600)
I1129 18:31:59.199635   715 net.cpp:69] Creating Layer relu2
I1129 18:31:59.199652   715 net.cpp:400] relu2 <- conv2
I1129 18:31:59.199668   715 net.cpp:351] relu2 -> conv2 (in-place)
I1129 18:31:59.199688   715 net.cpp:98] Setting up relu2
I1129 18:31:59.199704   715 net.cpp:105] Top shape: 100 64 7 7 (313600)
I1129 18:31:59.199738   715 net.cpp:69] Creating Layer pool2
I1129 18:31:59.199753   715 net.cpp:400] pool2 <- conv2
I1129 18:31:59.199769   715 net.cpp:362] pool2 -> pool2
I1129 18:31:59.199801   715 net.cpp:98] Setting up pool2
I1129 18:31:59.199818   715 net.cpp:105] Top shape: 100 64 3 3 (57600)
I1129 18:31:59.199851   715 net.cpp:69] Creating Layer ip1
I1129 18:31:59.199867   715 net.cpp:400] ip1 <- pool2
I1129 18:31:59.199889   715 net.cpp:362] ip1 -> ip1
I1129 18:31:59.199926   715 net.cpp:98] Setting up ip1
I1129 18:31:59.203534   715 net.cpp:105] Top shape: 100 150 1 1 (15000)
I1129 18:31:59.203559   715 net.cpp:69] Creating Layer relu3
I1129 18:31:59.203572   715 net.cpp:400] relu3 <- ip1
I1129 18:31:59.203586   715 net.cpp:351] relu3 -> ip1 (in-place)
I1129 18:31:59.203603   715 net.cpp:98] Setting up relu3
I1129 18:31:59.203619   715 net.cpp:105] Top shape: 100 150 1 1 (15000)
I1129 18:31:59.203636   715 net.cpp:69] Creating Layer ip2
I1129 18:31:59.203651   715 net.cpp:400] ip2 <- ip1
I1129 18:31:59.203671   715 net.cpp:362] ip2 -> ip2
I1129 18:31:59.203691   715 net.cpp:98] Setting up ip2
I1129 18:31:59.203840   715 net.cpp:105] Top shape: 100 10 1 1 (1000)
I1129 18:31:59.203872   715 net.cpp:69] Creating Layer ip2_ip2_0_split
I1129 18:31:59.203889   715 net.cpp:400] ip2_ip2_0_split <- ip2
I1129 18:31:59.203910   715 net.cpp:362] ip2_ip2_0_split -> ip2_ip2_0_split_0
I1129 18:31:59.203936   715 net.cpp:362] ip2_ip2_0_split -> ip2_ip2_0_split_1
I1129 18:31:59.203958   715 net.cpp:98] Setting up ip2_ip2_0_split
I1129 18:31:59.203976   715 net.cpp:105] Top shape: 100 10 1 1 (1000)
I1129 18:31:59.203992   715 net.cpp:105] Top shape: 100 10 1 1 (1000)
I1129 18:31:59.204015   715 net.cpp:69] Creating Layer accuracy
I1129 18:31:59.204031   715 net.cpp:400] accuracy <- ip2_ip2_0_split_0
I1129 18:31:59.204049   715 net.cpp:400] accuracy <- label_mnist_1_split_0
I1129 18:31:59.204071   715 net.cpp:362] accuracy -> accuracy
I1129 18:31:59.204092   715 net.cpp:98] Setting up accuracy
I1129 18:31:59.204121   715 net.cpp:105] Top shape: 1 1 1 1 (1)
I1129 18:31:59.204144   715 net.cpp:69] Creating Layer loss
I1129 18:31:59.204159   715 net.cpp:400] loss <- ip2_ip2_0_split_1
I1129 18:31:59.204171   715 net.cpp:400] loss <- label_mnist_1_split_1
I1129 18:31:59.204202   715 net.cpp:362] loss -> loss
I1129 18:31:59.204221   715 net.cpp:98] Setting up loss
I1129 18:31:59.204242   715 net.cpp:105] Top shape: 1 1 1 1 (1)
I1129 18:31:59.204270   715 net.cpp:112]     with loss weight 1
I1129 18:31:59.204293   715 net.cpp:175] loss needs backward computation.
I1129 18:31:59.204334   715 net.cpp:177] accuracy does not need backward computation.
I1129 18:31:59.204349   715 net.cpp:175] ip2_ip2_0_split needs backward computation.
I1129 18:31:59.204361   715 net.cpp:175] ip2 needs backward computation.
I1129 18:31:59.204372   715 net.cpp:175] relu3 needs backward computation.
…
