…
I1128 22:46:53.155092  5782 solver.cpp:71] Creating training net from net file: protos/sicnn_train10k_train_test_mnist-sc_split1.prototxt
I1128 22:46:53.156394  5782 net.cpp:281] The NetState phase (0) differed from the phase (1) specified by a rule in layer mnist
I1128 22:46:53.156417  5782 net.cpp:281] The NetState phase (0) differed from the phase (1) specified by a rule in layer accuracy
I1128 22:46:53.156527  5782 net.cpp:41] Initializing net from parameters: 
name: "MNIST-sicnn-Table-1-split-1"
layers {
  top: "data"
  top: "label"
  name: "mnist"
  type: HDF5_DATA
  hdf5_data_param {
    source: "../../data/mnist/table1/10k_split1_test.txt"
    batch_size: 128
  }
  include {
    phase: TRAIN
  }
}
layers {
  bottom: "data"
  top: "conv1"
  name: "conv1"
  type: TICONV
  blobs_lr: 1
  blobs_lr: 2
  weight_decay: 1
  weight_decay: 0
  convolution_param {
    num_output: 36
    kernel_size: 7
    stride: 1
    weight_filler {
      type: "gaussian"
      std: 0.01
    }
    bias_filler {
      type: "constant"
    }
  }
  transformations {
  }
  transformations {
    scale: 0.63
  }
  transformations {
    scale: 0.7937
  }
  transformations {
    scale: 1.2599
  }
  transformations {
    scale: 1.5874
  }
  transformations {
    scale: 2
  }
}
layers {
  bottom: "conv1"
  top: "conv1"
  name: "relu1"
  type: RELU
}
layers {
  bottom: "conv1"
  top: "pool1"
  name: "pool1"
  type: POOLING
  pooling_param {
    pool: MAX
    kernel_size: 2
    stride: 2
  }
}
layers {
  bottom: "pool1"
  top: "conv2"
  name: "conv2"
  type: TICONV
  blobs_lr: 1
  blobs_lr: 2
  weight_decay: 1
  weight_decay: 0
  convolution_param {
    num_output: 64
    kernel_size: 5
    stride: 1
    weight_filler {
      type: "gaussian"
      std: 0.01
    }
    bias_filler {
      type: "constant"
    }
  }
  transformations {
  }
  transformations {
    scale: 0.63
  }
  transformations {
    scale: 0.7937
  }
  transformations {
    scale: 1.2599
  }
  transformations {
    scale: 1.5874
  }
  transformations {
    scale: 2
  }
}
layers {
  bottom: "conv2"
  top: "conv2"
  name: "relu2"
  type: RELU
}
layers {
  bottom: "conv2"
  top: "pool2"
  name: "pool2"
  type: POOLING
  pooling_param {
    pool: MAX
    kernel_size: 3
    stride: 3
  }
}
layers {
  bottom: "pool2"
  top: "ip1"
  name: "ip1"
  type: INNER_PRODUCT
  blobs_lr: 1
  blobs_lr: 2
  weight_decay: 1
  weight_decay: 0
  inner_product_param {
    num_output: 150
    weight_filler {
      type: "gaussian"
      std: 0.1
    }
    bias_filler {
      type: "constant"
    }
  }
}
layers {
  bottom: "ip1"
  top: "ip1"
  name: "relu3"
  type: RELU
}
layers {
  bottom: "ip1"
  top: "ip2"
  name: "ip2"
  type: INNER_PRODUCT
  blobs_lr: 1
  blobs_lr: 2
  weight_decay: 1
  weight_decay: 0
  inner_product_param {
    num_output: 10
    weight_filler {
      type: "gaussian"
      std: 0.1
    }
    bias_filler {
      type: "constant"
    }
  }
}
layers {
  bottom: "ip2"
  bottom: "label"
  top: "loss"
  name: "loss"
  type: SOFTMAX_LOSS
}
state {
  phase: TRAIN
}
I1128 22:46:53.156658  5782 net.cpp:69] Creating Layer mnist
I1128 22:46:53.156668  5782 net.cpp:362] mnist -> data
I1128 22:46:53.156680  5782 net.cpp:362] mnist -> label
I1128 22:46:53.156688  5782 net.cpp:98] Setting up mnist
I1128 22:46:53.156694  5782 hdf5_data_layer.cpp:61] Loading filename from ../../data/mnist/table1/10k_split1_test.txt
I1128 22:46:53.161275  5782 hdf5_data_layer.cpp:73] Number of files: 1
I1128 22:46:53.161289  5782 hdf5_data_layer.cpp:76] Loading HDF5 file/root/si-convnet/data/mnist/table1/mnist-sc-uniform-10ksplit-set-1.h5
I1128 22:46:53.520213  5782 hdf5_data_layer.cpp:86] output data size: 128,1,28,28
I1128 22:46:53.520282  5782 net.cpp:105] Top shape: 128 1 28 28 (100352)
I1128 22:46:53.520289  5782 net.cpp:105] Top shape: 128 1 1 1 (128)
I1128 22:46:53.520304  5782 net.cpp:69] Creating Layer conv1
I1128 22:46:53.520310  5782 net.cpp:400] conv1 <- data
I1128 22:46:53.520319  5782 net.cpp:362] conv1 -> conv1
I1128 22:46:53.520342  5782 net.cpp:98] Setting up conv1
I1128 22:46:53.521421  5782 ticonv_layer.cpp:27] TIConvolution layer using 6 transformations conv1 using interpolation: 1
I1128 22:46:53.521440  5782 ticonv_layer.cpp:33]  T0 :  sc: 1, rot: 0
I1128 22:46:53.521483  5782 ticonv_layer.cpp:33]  T1 :  sc: 0.63, rot: 0
I1128 22:46:53.521493  5782 ticonv_layer.cpp:33]  T2 :  sc: 0.7937, rot: 0
I1128 22:46:53.521502  5782 ticonv_layer.cpp:33]  T3 :  sc: 1.2599, rot: 0
I1128 22:46:53.521510  5782 ticonv_layer.cpp:33]  T4 :  sc: 1.5874, rot: 0
I1128 22:46:53.521518  5782 ticonv_layer.cpp:33]  T5 :  sc: 2, rot: 0
I1128 22:46:53.521528  5782 ticonv_layer.cpp:37]   Creating Upsampling Layer in conv1
I1128 22:46:53.531064  5782 ticonv_layer.cpp:51]   Top shape: 1 28 28
I1128 22:46:53.531077  5782 ticonv_layer.cpp:51]   Top shape: 1 17 17
I1128 22:46:53.531095  5782 ticonv_layer.cpp:51]   Top shape: 1 22 22
I1128 22:46:53.531098  5782 ticonv_layer.cpp:51]   Top shape: 1 35 35
I1128 22:46:53.531103  5782 ticonv_layer.cpp:51]   Top shape: 1 44 44
I1128 22:46:53.531107  5782 ticonv_layer.cpp:51]   Top shape: 1 56 56
I1128 22:46:53.531113  5782 ticonv_layer.cpp:58]   Creating TiedConv Layer in conv1
I1128 22:46:53.531246  5782 ticonv_layer.cpp:70]   Top shape: 36 22 22
I1128 22:46:53.531256  5782 ticonv_layer.cpp:70]   Top shape: 36 11 11
I1128 22:46:53.531261  5782 ticonv_layer.cpp:70]   Top shape: 36 16 16
I1128 22:46:53.531266  5782 ticonv_layer.cpp:70]   Top shape: 36 29 29
I1128 22:46:53.531271  5782 ticonv_layer.cpp:70]   Top shape: 36 38 38
I1128 22:46:53.531276  5782 ticonv_layer.cpp:70]   Top shape: 36 50 50
I1128 22:46:53.531281  5782 ticonv_layer.cpp:82]   Creating DownPooling Layer in conv1
I1128 22:46:53.531637  5782 net.cpp:105] Top shape: 128 36 22 22 (2230272)
I1128 22:46:53.531661  5782 net.cpp:69] Creating Layer relu1
I1128 22:46:53.531666  5782 net.cpp:400] relu1 <- conv1
I1128 22:46:53.531674  5782 net.cpp:351] relu1 -> conv1 (in-place)
I1128 22:46:53.531683  5782 net.cpp:98] Setting up relu1
I1128 22:46:53.531688  5782 net.cpp:105] Top shape: 128 36 22 22 (2230272)
I1128 22:46:53.531697  5782 net.cpp:69] Creating Layer pool1
I1128 22:46:53.531702  5782 net.cpp:400] pool1 <- conv1
I1128 22:46:53.531708  5782 net.cpp:362] pool1 -> pool1
I1128 22:46:53.531716  5782 net.cpp:98] Setting up pool1
I1128 22:46:53.532130  5782 net.cpp:105] Top shape: 128 36 11 11 (557568)
I1128 22:46:53.532150  5782 net.cpp:69] Creating Layer conv2
I1128 22:46:53.532155  5782 net.cpp:400] conv2 <- pool1
I1128 22:46:53.532164  5782 net.cpp:362] conv2 -> conv2
I1128 22:46:53.532176  5782 net.cpp:98] Setting up conv2
I1128 22:46:53.532181  5782 ticonv_layer.cpp:27] TIConvolution layer using 6 transformations conv2 using interpolation: 1
I1128 22:46:53.532186  5782 ticonv_layer.cpp:33]  T0 :  sc: 1, rot: 0
I1128 22:46:53.532197  5782 ticonv_layer.cpp:33]  T1 :  sc: 0.63, rot: 0
I1128 22:46:53.532204  5782 ticonv_layer.cpp:33]  T2 :  sc: 0.7937, rot: 0
I1128 22:46:53.532212  5782 ticonv_layer.cpp:33]  T3 :  sc: 1.2599, rot: 0
I1128 22:46:53.532217  5782 ticonv_layer.cpp:33]  T4 :  sc: 1.5874, rot: 0
I1128 22:46:53.532223  5782 ticonv_layer.cpp:33]  T5 :  sc: 2, rot: 0
I1128 22:46:53.532229  5782 ticonv_layer.cpp:37]   Creating Upsampling Layer in conv2
I1128 22:46:53.532454  5782 ticonv_layer.cpp:51]   Top shape: 36 11 11
I1128 22:46:53.532464  5782 ticonv_layer.cpp:51]   Top shape: 36 6 6
I1128 22:46:53.532469  5782 ticonv_layer.cpp:51]   Top shape: 36 8 8
I1128 22:46:53.532474  5782 ticonv_layer.cpp:51]   Top shape: 36 13 13
I1128 22:46:53.532479  5782 ticonv_layer.cpp:51]   Top shape: 36 17 17
I1128 22:46:53.532483  5782 ticonv_layer.cpp:51]   Top shape: 36 22 22
I1128 22:46:53.532490  5782 ticonv_layer.cpp:58]   Creating TiedConv Layer in conv2
I1128 22:46:53.535006  5782 ticonv_layer.cpp:70]   Top shape: 64 7 7
I1128 22:46:53.535017  5782 ticonv_layer.cpp:70]   Top shape: 64 2 2
I1128 22:46:53.535034  5782 ticonv_layer.cpp:70]   Top shape: 64 4 4
I1128 22:46:53.535038  5782 ticonv_layer.cpp:70]   Top shape: 64 9 9
I1128 22:46:53.535043  5782 ticonv_layer.cpp:70]   Top shape: 64 13 13
I1128 22:46:53.535048  5782 ticonv_layer.cpp:70]   Top shape: 64 18 18
I1128 22:46:53.535053  5782 ticonv_layer.cpp:82]   Creating DownPooling Layer in conv2
I1128 22:46:53.535221  5782 net.cpp:105] Top shape: 128 64 7 7 (401408)
I1128 22:46:53.535238  5782 net.cpp:69] Creating Layer relu2
I1128 22:46:53.535243  5782 net.cpp:400] relu2 <- conv2
I1128 22:46:53.535251  5782 net.cpp:351] relu2 -> conv2 (in-place)
I1128 22:46:53.535259  5782 net.cpp:98] Setting up relu2
I1128 22:46:53.535264  5782 net.cpp:105] Top shape: 128 64 7 7 (401408)
I1128 22:46:53.535272  5782 net.cpp:69] Creating Layer pool2
I1128 22:46:53.535277  5782 net.cpp:400] pool2 <- conv2
I1128 22:46:53.535284  5782 net.cpp:362] pool2 -> pool2
I1128 22:46:53.535291  5782 net.cpp:98] Setting up pool2
I1128 22:46:53.535298  5782 net.cpp:105] Top shape: 128 64 3 3 (73728)
I1128 22:46:53.535307  5782 net.cpp:69] Creating Layer ip1
I1128 22:46:53.535312  5782 net.cpp:400] ip1 <- pool2
I1128 22:46:53.535320  5782 net.cpp:362] ip1 -> ip1
I1128 22:46:53.535327  5782 net.cpp:98] Setting up ip1
I1128 22:46:53.538914  5782 net.cpp:105] Top shape: 128 150 1 1 (19200)
I1128 22:46:53.538944  5782 net.cpp:69] Creating Layer relu3
I1128 22:46:53.538949  5782 net.cpp:400] relu3 <- ip1
I1128 22:46:53.538955  5782 net.cpp:351] relu3 -> ip1 (in-place)
I1128 22:46:53.538964  5782 net.cpp:98] Setting up relu3
I1128 22:46:53.538969  5782 net.cpp:105] Top shape: 128 150 1 1 (19200)
I1128 22:46:53.538975  5782 net.cpp:69] Creating Layer ip2
I1128 22:46:53.538980  5782 net.cpp:400] ip2 <- ip1
I1128 22:46:53.538987  5782 net.cpp:362] ip2 -> ip2
I1128 22:46:53.539007  5782 net.cpp:98] Setting up ip2
I1128 22:46:53.539085  5782 net.cpp:105] Top shape: 128 10 1 1 (1280)
I1128 22:46:53.539099  5782 net.cpp:69] Creating Layer loss
I1128 22:46:53.539104  5782 net.cpp:400] loss <- ip2
I1128 22:46:53.539110  5782 net.cpp:400] loss <- label
I1128 22:46:53.539120  5782 net.cpp:362] loss -> loss
I1128 22:46:53.539129  5782 net.cpp:98] Setting up loss
I1128 22:46:53.539144  5782 net.cpp:105] Top shape: 1 1 1 1 (1)
I1128 22:46:53.539149  5782 net.cpp:112]     with loss weight 1
I1128 22:46:53.539160  5782 net.cpp:175] loss needs backward computation.
I1128 22:46:53.539165  5782 net.cpp:175] ip2 needs backward computation.
I1128 22:46:53.539170  5782 net.cpp:175] relu3 needs backward computation.
I1128 22:46:53.539175  5782 net.cpp:175] ip1 needs backward computation.
I1128 22:46:53.539180  5782 net.cpp:175] pool2 needs backward computation.
…
I1128 22:46:53.539532  5782 solver.cpp:154] Creating test net (#0) specified by net file: protos/sicnn_train10k_train_test_mnist-sc_split1.prototxt
I1128 22:46:53.539567  5782 net.cpp:281] The NetState phase (1) differed from the phase (0) specified by a rule in layer mnist
I1128 22:46:53.539698  5782 net.cpp:41] Initializing net from parameters: 
name: "MNIST-sicnn-Table-1-split-1"
layers {
  top: "data"
  top: "label"
  name: "mnist"
  type: HDF5_DATA
  hdf5_data_param {
    source: "../../data/mnist/table1/10k_split1_train.txt"
    batch_size: 100
  }
  include {
    phase: TEST
  }
}
layers {
  bottom: "data"
  top: "conv1"
  name: "conv1"
  type: TICONV
  blobs_lr: 1
  blobs_lr: 2
  weight_decay: 1
  weight_decay: 0
  convolution_param {
    num_output: 36
    kernel_size: 7
    stride: 1
    weight_filler {
      type: "gaussian"
      std: 0.01
    }
    bias_filler {
      type: "constant"
    }
  }
  transformations {
  }
  transformations {
    scale: 0.63
  }
  transformations {
    scale: 0.7937
  }
  transformations {
    scale: 1.2599
  }
  transformations {
    scale: 1.5874
  }
  transformations {
    scale: 2
  }
}
layers {
  bottom: "conv1"
  top: "conv1"
  name: "relu1"
  type: RELU
}
layers {
  bottom: "conv1"
  top: "pool1"
  name: "pool1"
  type: POOLING
  pooling_param {
    pool: MAX
    kernel_size: 2
    stride: 2
  }
}
layers {
  bottom: "pool1"
  top: "conv2"
  name: "conv2"
  type: TICONV
  blobs_lr: 1
  blobs_lr: 2
  weight_decay: 1
  weight_decay: 0
  convolution_param {
    num_output: 64
    kernel_size: 5
    stride: 1
    weight_filler {
      type: "gaussian"
      std: 0.01
    }
    bias_filler {
      type: "constant"
    }
  }
  transformations {
  }
  transformations {
    scale: 0.63
  }
  transformations {
    scale: 0.7937
  }
  transformations {
    scale: 1.2599
  }
  transformations {
    scale: 1.5874
  }
  transformations {
    scale: 2
  }
}
layers {
  bottom: "conv2"
  top: "conv2"
  name: "relu2"
  type: RELU
}
layers {
  bottom: "conv2"
  top: "pool2"
  name: "pool2"
  type: POOLING
  pooling_param {
    pool: MAX
    kernel_size: 3
    stride: 3
  }
}
layers {
  bottom: "pool2"
  top: "ip1"
  name: "ip1"
  type: INNER_PRODUCT
  blobs_lr: 1
  blobs_lr: 2
  weight_decay: 1
  weight_decay: 0
  inner_product_param {
    num_output: 150
    weight_filler {
      type: "gaussian"
      std: 0.1
    }
    bias_filler {
      type: "constant"
    }
  }
}
layers {
  bottom: "ip1"
  top: "ip1"
  name: "relu3"
  type: RELU
}
layers {
  bottom: "ip1"
  top: "ip2"
  name: "ip2"
  type: INNER_PRODUCT
  blobs_lr: 1
  blobs_lr: 2
  weight_decay: 1
  weight_decay: 0
  inner_product_param {
    num_output: 10
    weight_filler {
      type: "gaussian"
      std: 0.1
    }
    bias_filler {
      type: "constant"
    }
  }
}
layers {
  bottom: "ip2"
  bottom: "label"
  top: "accuracy"
  name: "accuracy"
  type: ACCURACY
  include {
    phase: TEST
  }
}
layers {
  bottom: "ip2"
  bottom: "label"
  top: "loss"
  name: "loss"
  type: SOFTMAX_LOSS
}
state {
  phase: TEST
}
I1128 22:46:53.539809  5782 net.cpp:69] Creating Layer mnist
I1128 22:46:53.539819  5782 net.cpp:362] mnist -> data
I1128 22:46:53.539829  5782 net.cpp:362] mnist -> label
I1128 22:46:53.539836  5782 net.cpp:98] Setting up mnist
I1128 22:46:53.539842  5782 hdf5_data_layer.cpp:61] Loading filename from ../../data/mnist/table1/10k_split1_train.txt
I1128 22:46:53.540084  5782 hdf5_data_layer.cpp:73] Number of files: 5
I1128 22:46:53.540096  5782 hdf5_data_layer.cpp:76] Loading HDF5 file/root/si-convnet/data/mnist/table1/mnist-sc-uniform-10ksplit-set-2.h5
I1128 22:46:53.884865  5782 hdf5_data_layer.cpp:86] output data size: 100,1,28,28
I1128 22:46:53.884897  5782 net.cpp:105] Top shape: 100 1 28 28 (78400)
I1128 22:46:53.884904  5782 net.cpp:105] Top shape: 100 1 1 1 (100)
I1128 22:46:53.884917  5782 net.cpp:69] Creating Layer label_mnist_1_split
I1128 22:46:53.884923  5782 net.cpp:400] label_mnist_1_split <- label
I1128 22:46:53.884944  5782 net.cpp:362] label_mnist_1_split -> label_mnist_1_split_0
I1128 22:46:53.884956  5782 net.cpp:362] label_mnist_1_split -> label_mnist_1_split_1
I1128 22:46:53.884964  5782 net.cpp:98] Setting up label_mnist_1_split
I1128 22:46:53.884984  5782 net.cpp:105] Top shape: 100 1 1 1 (100)
I1128 22:46:53.884989  5782 net.cpp:105] Top shape: 100 1 1 1 (100)
I1128 22:46:53.884999  5782 net.cpp:69] Creating Layer conv1
I1128 22:46:53.885004  5782 net.cpp:400] conv1 <- data
I1128 22:46:53.885012  5782 net.cpp:362] conv1 -> conv1
I1128 22:46:53.885048  5782 net.cpp:98] Setting up conv1
I1128 22:46:53.885056  5782 ticonv_layer.cpp:27] TIConvolution layer using 6 transformations conv1 using interpolation: 1
I1128 22:46:53.885061  5782 ticonv_layer.cpp:33]  T0 :  sc: 1, rot: 0
I1128 22:46:53.885080  5782 ticonv_layer.cpp:33]  T1 :  sc: 0.63, rot: 0
I1128 22:46:53.885087  5782 ticonv_layer.cpp:33]  T2 :  sc: 0.7937, rot: 0
I1128 22:46:53.885094  5782 ticonv_layer.cpp:33]  T3 :  sc: 1.2599, rot: 0
I1128 22:46:53.885100  5782 ticonv_layer.cpp:33]  T4 :  sc: 1.5874, rot: 0
I1128 22:46:53.885107  5782 ticonv_layer.cpp:33]  T5 :  sc: 2, rot: 0
I1128 22:46:53.885113  5782 ticonv_layer.cpp:37]   Creating Upsampling Layer in conv1
I1128 22:46:53.885941  5782 ticonv_layer.cpp:51]   Top shape: 1 28 28
I1128 22:46:53.885952  5782 ticonv_layer.cpp:51]   Top shape: 1 17 17
I1128 22:46:53.885957  5782 ticonv_layer.cpp:51]   Top shape: 1 22 22
I1128 22:46:53.885962  5782 ticonv_layer.cpp:51]   Top shape: 1 35 35
I1128 22:46:53.885967  5782 ticonv_layer.cpp:51]   Top shape: 1 44 44
I1128 22:46:53.885972  5782 ticonv_layer.cpp:51]   Top shape: 1 56 56
I1128 22:46:53.885977  5782 ticonv_layer.cpp:58]   Creating TiedConv Layer in conv1
I1128 22:46:53.886080  5782 ticonv_layer.cpp:70]   Top shape: 36 22 22
I1128 22:46:53.886090  5782 ticonv_layer.cpp:70]   Top shape: 36 11 11
I1128 22:46:53.886095  5782 ticonv_layer.cpp:70]   Top shape: 36 16 16
I1128 22:46:53.886099  5782 ticonv_layer.cpp:70]   Top shape: 36 29 29
I1128 22:46:53.886104  5782 ticonv_layer.cpp:70]   Top shape: 36 38 38
I1128 22:46:53.886109  5782 ticonv_layer.cpp:70]   Top shape: 36 50 50
I1128 22:46:53.886116  5782 ticonv_layer.cpp:82]   Creating DownPooling Layer in conv1
I1128 22:46:53.886488  5782 net.cpp:105] Top shape: 100 36 22 22 (1742400)
I1128 22:46:53.886507  5782 net.cpp:69] Creating Layer relu1
I1128 22:46:53.886514  5782 net.cpp:400] relu1 <- conv1
I1128 22:46:53.886521  5782 net.cpp:351] relu1 -> conv1 (in-place)
I1128 22:46:53.886529  5782 net.cpp:98] Setting up relu1
I1128 22:46:53.886538  5782 net.cpp:105] Top shape: 100 36 22 22 (1742400)
I1128 22:46:53.886545  5782 net.cpp:69] Creating Layer pool1
I1128 22:46:53.886551  5782 net.cpp:400] pool1 <- conv1
I1128 22:46:53.886559  5782 net.cpp:362] pool1 -> pool1
I1128 22:46:53.886566  5782 net.cpp:98] Setting up pool1
I1128 22:46:53.886574  5782 net.cpp:105] Top shape: 100 36 11 11 (435600)
I1128 22:46:53.886581  5782 net.cpp:69] Creating Layer conv2
I1128 22:46:53.886587  5782 net.cpp:400] conv2 <- pool1
I1128 22:46:53.886600  5782 net.cpp:362] conv2 -> conv2
I1128 22:46:53.886607  5782 net.cpp:98] Setting up conv2
I1128 22:46:53.886612  5782 ticonv_layer.cpp:27] TIConvolution layer using 6 transformations conv2 using interpolation: 1
I1128 22:46:53.886617  5782 ticonv_layer.cpp:33]  T0 :  sc: 1, rot: 0
I1128 22:46:53.886627  5782 ticonv_layer.cpp:33]  T1 :  sc: 0.63, rot: 0
I1128 22:46:53.886634  5782 ticonv_layer.cpp:33]  T2 :  sc: 0.7937, rot: 0
I1128 22:46:53.886641  5782 ticonv_layer.cpp:33]  T3 :  sc: 1.2599, rot: 0
I1128 22:46:53.886647  5782 ticonv_layer.cpp:33]  T4 :  sc: 1.5874, rot: 0
I1128 22:46:53.886653  5782 ticonv_layer.cpp:33]  T5 :  sc: 2, rot: 0
I1128 22:46:53.886659  5782 ticonv_layer.cpp:37]   Creating Upsampling Layer in conv2
I1128 22:46:53.886870  5782 ticonv_layer.cpp:51]   Top shape: 36 11 11
I1128 22:46:53.886880  5782 ticonv_layer.cpp:51]   Top shape: 36 6 6
I1128 22:46:53.886886  5782 ticonv_layer.cpp:51]   Top shape: 36 8 8
I1128 22:46:53.886891  5782 ticonv_layer.cpp:51]   Top shape: 36 13 13
I1128 22:46:53.886896  5782 ticonv_layer.cpp:51]   Top shape: 36 17 17
I1128 22:46:53.886901  5782 ticonv_layer.cpp:51]   Top shape: 36 22 22
I1128 22:46:53.886906  5782 ticonv_layer.cpp:58]   Creating TiedConv Layer in conv2
I1128 22:46:53.889240  5782 ticonv_layer.cpp:70]   Top shape: 64 7 7
I1128 22:46:53.889250  5782 ticonv_layer.cpp:70]   Top shape: 64 2 2
I1128 22:46:53.889256  5782 ticonv_layer.cpp:70]   Top shape: 64 4 4
I1128 22:46:53.889261  5782 ticonv_layer.cpp:70]   Top shape: 64 9 9
I1128 22:46:53.889284  5782 ticonv_layer.cpp:70]   Top shape: 64 13 13
I1128 22:46:53.889290  5782 ticonv_layer.cpp:70]   Top shape: 64 18 18
I1128 22:46:53.889295  5782 ticonv_layer.cpp:82]   Creating DownPooling Layer in conv2
I1128 22:46:53.889436  5782 net.cpp:105] Top shape: 100 64 7 7 (313600)
I1128 22:46:53.889452  5782 net.cpp:69] Creating Layer relu2
I1128 22:46:53.889458  5782 net.cpp:400] relu2 <- conv2
I1128 22:46:53.889466  5782 net.cpp:351] relu2 -> conv2 (in-place)
I1128 22:46:53.889473  5782 net.cpp:98] Setting up relu2
I1128 22:46:53.889478  5782 net.cpp:105] Top shape: 100 64 7 7 (313600)
I1128 22:46:53.889487  5782 net.cpp:69] Creating Layer pool2
I1128 22:46:53.889492  5782 net.cpp:400] pool2 <- conv2
I1128 22:46:53.889498  5782 net.cpp:362] pool2 -> pool2
I1128 22:46:53.889505  5782 net.cpp:98] Setting up pool2
I1128 22:46:53.889513  5782 net.cpp:105] Top shape: 100 64 3 3 (57600)
I1128 22:46:53.889521  5782 net.cpp:69] Creating Layer ip1
I1128 22:46:53.889526  5782 net.cpp:400] ip1 <- pool2
I1128 22:46:53.889533  5782 net.cpp:362] ip1 -> ip1
I1128 22:46:53.889542  5782 net.cpp:98] Setting up ip1
I1128 22:46:53.893169  5782 net.cpp:105] Top shape: 100 150 1 1 (15000)
I1128 22:46:53.893200  5782 net.cpp:69] Creating Layer relu3
I1128 22:46:53.893206  5782 net.cpp:400] relu3 <- ip1
I1128 22:46:53.893213  5782 net.cpp:351] relu3 -> ip1 (in-place)
I1128 22:46:53.893221  5782 net.cpp:98] Setting up relu3
I1128 22:46:53.893226  5782 net.cpp:105] Top shape: 100 150 1 1 (15000)
I1128 22:46:53.893234  5782 net.cpp:69] Creating Layer ip2
I1128 22:46:53.893239  5782 net.cpp:400] ip2 <- ip1
I1128 22:46:53.893247  5782 net.cpp:362] ip2 -> ip2
I1128 22:46:53.893254  5782 net.cpp:98] Setting up ip2
I1128 22:46:53.893328  5782 net.cpp:105] Top shape: 100 10 1 1 (1000)
I1128 22:46:53.893342  5782 net.cpp:69] Creating Layer ip2_ip2_0_split
I1128 22:46:53.893347  5782 net.cpp:400] ip2_ip2_0_split <- ip2
I1128 22:46:53.893354  5782 net.cpp:362] ip2_ip2_0_split -> ip2_ip2_0_split_0
I1128 22:46:53.893363  5782 net.cpp:362] ip2_ip2_0_split -> ip2_ip2_0_split_1
I1128 22:46:53.893373  5782 net.cpp:98] Setting up ip2_ip2_0_split
I1128 22:46:53.893378  5782 net.cpp:105] Top shape: 100 10 1 1 (1000)
I1128 22:46:53.893384  5782 net.cpp:105] Top shape: 100 10 1 1 (1000)
I1128 22:46:53.893393  5782 net.cpp:69] Creating Layer accuracy
I1128 22:46:53.893399  5782 net.cpp:400] accuracy <- ip2_ip2_0_split_0
I1128 22:46:53.893404  5782 net.cpp:400] accuracy <- label_mnist_1_split_0
I1128 22:46:53.893412  5782 net.cpp:362] accuracy -> accuracy
I1128 22:46:53.893420  5782 net.cpp:98] Setting up accuracy
I1128 22:46:53.893426  5782 net.cpp:105] Top shape: 1 1 1 1 (1)
I1128 22:46:53.893435  5782 net.cpp:69] Creating Layer loss
I1128 22:46:53.893440  5782 net.cpp:400] loss <- ip2_ip2_0_split_1
I1128 22:46:53.893445  5782 net.cpp:400] loss <- label_mnist_1_split_1
I1128 22:46:53.893452  5782 net.cpp:362] loss -> loss
I1128 22:46:53.893460  5782 net.cpp:98] Setting up loss
I1128 22:46:53.893468  5782 net.cpp:105] Top shape: 1 1 1 1 (1)
I1128 22:46:53.893474  5782 net.cpp:112]     with loss weight 1
I1128 22:46:53.893484  5782 net.cpp:175] loss needs backward computation.
I1128 22:46:53.893491  5782 net.cpp:177] accuracy does not need backward computation.
I1128 22:46:53.893496  5782 net.cpp:175] ip2_ip2_0_split needs backward computation.
I1128 22:46:53.893501  5782 net.cpp:175] ip2 needs backward computation.
I1128 22:46:53.893507  5782 net.cpp:175] relu3 needs backward computation.
…
